…
I1218 16:40:52.788736 1990406912 solver.cpp:67] Creating training net from net file: /Users/JamesGuo/Documents/MasterThesis/landmark/landmark_train_val.prototxt
I1218 16:40:52.791157 1990406912 net.cpp:275] The NetState phase (0) differed from the phase (1) specified by a rule in layer data1
I1218 16:40:52.791190 1990406912 net.cpp:39] Initializing net from parameters: 
name: "LandmarkDetector"
layers {
  top: "data"
  top: "label"
  name: "data1"
  type: HDF5_DATA
  hdf5_data_param {
    source: "/Users/JamesGuo/Documents/MasterThesis/landmark/caffe/facelandmark_data_train_list.txt"
    batch_size: 200
  }
  include {
    phase: TRAIN
  }
  transform_param {
    scale: 0.00390625
  }
}
layers {
  bottom: "data"
  top: "conv0"
  name: "conv0"
  type: CONVOLUTION
  blobs_lr: 1
  blobs_lr: 2
  convolution_param {
    num_output: 16
    kernel_size: 5
    stride: 1
    weight_filler {
      type: "xavier"
    }
    bias_filler {
      type: "constant"
    }
  }
}
layers {
  bottom: "conv0"
  top: "pool1"
  name: "pool1"
  type: POOLING
  pooling_param {
    pool: MAX
    kernel_size: 2
    stride: 2
  }
}
layers {
  bottom: "pool1"
  top: "conv2"
  name: "conv2"
  type: CONVOLUTION
  blobs_lr: 1
  blobs_lr: 2
  convolution_param {
    num_output: 48
    kernel_size: 3
    stride: 1
    weight_filler {
      type: "xavier"
    }
    bias_filler {
      type: "constant"
    }
  }
}
layers {
  bottom: "conv2"
  top: "pool3"
  name: "pool3"
  type: POOLING
  pooling_param {
    pool: MAX
    kernel_size: 2
    stride: 2
  }
}
layers {
  bottom: "pool3"
  top: "conv4"
  name: "conv4"
  type: CONVOLUTION
  blobs_lr: 1
  blobs_lr: 2
  convolution_param {
    num_output: 64
    kernel_size: 3
    stride: 1
    weight_filler {
      type: "xavier"
    }
    bias_filler {
      type: "constant"
    }
  }
}
layers {
  bottom: "conv4"
  top: "pool5"
  name: "pool5"
  type: POOLING
  pooling_param {
    pool: MAX
    kernel_size: 2
    stride: 2
  }
}
layers {
  bottom: "pool5"
  top: "conv6"
  name: "conv6"
  type: CONVOLUTION
  blobs_lr: 1
  blobs_lr: 2
  convolution_param {
    num_output: 120
    kernel_size: 3
    stride: 1
    weight_filler {
      type: "xavier"
    }
    bias_filler {
      type: "constant"
    }
  }
}
layers {
  bottom: "conv6"
  top: "ip1"
  name: "ip1"
  type: INNER_PRODUCT
  blobs_lr: 1
  blobs_lr: 2
  inner_product_param {
    num_output: 100
    weight_filler {
      type: "xavier"
    }
    bias_filler {
      type: "constant"
    }
  }
}
layers {
  bottom: "ip1"
  top: "ip1"
  name: "relu1"
  type: RELU
}
layers {
  bottom: "ip1"
  top: "ip2"
  name: "ip2"
  type: INNER_PRODUCT
  blobs_lr: 1
  blobs_lr: 2
  weight_decay: 1
  weight_decay: 0
  inner_product_param {
    num_output: 10
    weight_filler {
      type: "xavier"
    }
    bias_filler {
      type: "constant"
    }
  }
}
layers {
  bottom: "ip2"
  bottom: "label"
  top: "loss"
  name: "loss"
  type: EUCLIDEAN_LOSS
}
state {
  phase: TRAIN
}
I1218 16:40:52.791484 1990406912 layer_factory.hpp:78] Creating layer data1
I1218 16:40:52.791504 1990406912 net.cpp:67] Creating Layer data1
I1218 16:40:52.791517 1990406912 net.cpp:356] data1 -> data
I1218 16:40:52.791542 1990406912 net.cpp:356] data1 -> label
I1218 16:40:52.791553 1990406912 net.cpp:96] Setting up data1
I1218 16:40:52.791559 1990406912 hdf5_data_layer.cpp:63] Loading list of HDF5 filenames from: /Users/JamesGuo/Documents/MasterThesis/landmark/caffe/facelandmark_data_train_list.txt
I1218 16:40:52.792656 1990406912 hdf5_data_layer.cpp:77] Number of HDF5 files: 1
I1218 16:40:53.643759 1990406912 net.cpp:103] Top shape: 200 1 40 40 (320000)
I1218 16:40:53.643784 1990406912 net.cpp:103] Top shape: 200 10 1 1 (2000)
I1218 16:40:53.643789 1990406912 layer_factory.hpp:78] Creating layer conv0
I1218 16:40:53.643801 1990406912 net.cpp:67] Creating Layer conv0
I1218 16:40:53.643806 1990406912 net.cpp:394] conv0 <- data
I1218 16:40:53.643816 1990406912 net.cpp:356] conv0 -> conv0
I1218 16:40:53.643831 1990406912 net.cpp:96] Setting up conv0
I1218 16:40:53.648478 1990406912 net.cpp:103] Top shape: 200 16 36 36 (4147200)
I1218 16:40:53.648499 1990406912 layer_factory.hpp:78] Creating layer pool1
I1218 16:40:53.648507 1990406912 net.cpp:67] Creating Layer pool1
I1218 16:40:53.648514 1990406912 net.cpp:394] pool1 <- conv0
I1218 16:40:53.648522 1990406912 net.cpp:356] pool1 -> pool1
I1218 16:40:53.648533 1990406912 net.cpp:96] Setting up pool1
I1218 16:40:53.648547 1990406912 net.cpp:103] Top shape: 200 16 18 18 (1036800)
I1218 16:40:53.648555 1990406912 layer_factory.hpp:78] Creating layer conv2
I1218 16:40:53.648566 1990406912 net.cpp:67] Creating Layer conv2
I1218 16:40:53.648573 1990406912 net.cpp:394] conv2 <- pool1
I1218 16:40:53.648582 1990406912 net.cpp:356] conv2 -> conv2
I1218 16:40:53.648593 1990406912 net.cpp:96] Setting up conv2
I1218 16:40:53.648655 1990406912 net.cpp:103] Top shape: 200 48 16 16 (2457600)
I1218 16:40:53.648669 1990406912 layer_factory.hpp:78] Creating layer pool3
I1218 16:40:53.648679 1990406912 net.cpp:67] Creating Layer pool3
I1218 16:40:53.648686 1990406912 net.cpp:394] pool3 <- conv2
I1218 16:40:53.648692 1990406912 net.cpp:356] pool3 -> pool3
I1218 16:40:53.648699 1990406912 net.cpp:96] Setting up pool3
I1218 16:40:53.648702 1990406912 net.cpp:103] Top shape: 200 48 8 8 (614400)
I1218 16:40:53.648706 1990406912 layer_factory.hpp:78] Creating layer conv4
I1218 16:40:53.648715 1990406912 net.cpp:67] Creating Layer conv4
I1218 16:40:53.648721 1990406912 net.cpp:394] conv4 <- pool3
I1218 16:40:53.648730 1990406912 net.cpp:356] conv4 -> conv4
I1218 16:40:53.648740 1990406912 net.cpp:96] Setting up conv4
I1218 16:40:53.649004 1990406912 net.cpp:103] Top shape: 200 64 6 6 (460800)
I1218 16:40:53.649018 1990406912 layer_factory.hpp:78] Creating layer pool5
I1218 16:40:53.649026 1990406912 net.cpp:67] Creating Layer pool5
I1218 16:40:53.649032 1990406912 net.cpp:394] pool5 <- conv4
I1218 16:40:53.649040 1990406912 net.cpp:356] pool5 -> pool5
I1218 16:40:53.649050 1990406912 net.cpp:96] Setting up pool5
I1218 16:40:53.649058 1990406912 net.cpp:103] Top shape: 200 64 3 3 (115200)
I1218 16:40:53.649065 1990406912 layer_factory.hpp:78] Creating layer conv6
I1218 16:40:53.649076 1990406912 net.cpp:67] Creating Layer conv6
I1218 16:40:53.649083 1990406912 net.cpp:394] conv6 <- pool5
I1218 16:40:53.649092 1990406912 net.cpp:356] conv6 -> conv6
I1218 16:40:53.649106 1990406912 net.cpp:96] Setting up conv6
I1218 16:40:53.649535 1990406912 net.cpp:103] Top shape: 200 120 1 1 (24000)
I1218 16:40:53.649545 1990406912 layer_factory.hpp:78] Creating layer ip1
I1218 16:40:53.649555 1990406912 net.cpp:67] Creating Layer ip1
I1218 16:40:53.649577 1990406912 net.cpp:394] ip1 <- conv6
I1218 16:40:53.649608 1990406912 net.cpp:356] ip1 -> ip1
I1218 16:40:53.649621 1990406912 net.cpp:96] Setting up ip1
I1218 16:40:53.649771 1990406912 net.cpp:103] Top shape: 200 100 1 1 (20000)
I1218 16:40:53.649785 1990406912 layer_factory.hpp:78] Creating layer relu1
I1218 16:40:53.649811 1990406912 net.cpp:67] Creating Layer relu1
I1218 16:40:53.649822 1990406912 net.cpp:394] relu1 <- ip1
I1218 16:40:53.649842 1990406912 net.cpp:345] relu1 -> ip1 (in-place)
I1218 16:40:53.649854 1990406912 net.cpp:96] Setting up relu1
I1218 16:40:53.649862 1990406912 net.cpp:103] Top shape: 200 100 1 1 (20000)
I1218 16:40:53.649868 1990406912 layer_factory.hpp:78] Creating layer ip2
I1218 16:40:53.649878 1990406912 net.cpp:67] Creating Layer ip2
I1218 16:40:53.649884 1990406912 net.cpp:394] ip2 <- ip1
I1218 16:40:53.649900 1990406912 net.cpp:356] ip2 -> ip2
I1218 16:40:53.649950 1990406912 net.cpp:96] Setting up ip2
I1218 16:40:53.649993 1990406912 net.cpp:103] Top shape: 200 10 1 1 (2000)
I1218 16:40:53.650003 1990406912 layer_factory.hpp:78] Creating layer loss
I1218 16:40:53.650015 1990406912 net.cpp:67] Creating Layer loss
I1218 16:40:53.650022 1990406912 net.cpp:394] loss <- ip2
I1218 16:40:53.650028 1990406912 net.cpp:394] loss <- label
I1218 16:40:53.650037 1990406912 net.cpp:356] loss -> loss
I1218 16:40:53.650043 1990406912 net.cpp:96] Setting up loss
I1218 16:40:53.650048 1990406912 net.cpp:103] Top shape: 1 1 1 1 (1)
I1218 16:40:53.650053 1990406912 net.cpp:109]     with loss weight 1
I1218 16:40:53.650074 1990406912 net.cpp:170] loss needs backward computation.
I1218 16:40:53.650079 1990406912 net.cpp:170] ip2 needs backward computation.
I1218 16:40:53.650084 1990406912 net.cpp:170] relu1 needs backward computation.
I1218 16:40:53.650090 1990406912 net.cpp:170] ip1 needs backward computation.
I1218 16:40:53.650095 1990406912 net.cpp:170] conv6 needs backward computation.
…
