…
I1231 00:24:34.797358 1992884992 solver.cpp:67] Creating training net from net file: /Users/JamesGuo/Documents/MasterThesis/landmark/landmark_train_val.prototxt
I1231 00:24:34.798622 1992884992 net.cpp:275] The NetState phase (0) differed from the phase (1) specified by a rule in layer data1
I1231 00:24:34.798665 1992884992 net.cpp:39] Initializing net from parameters: 
name: "LandmarkDetector"
layers {
  top: "data"
  top: "label"
  name: "data1"
  type: HDF5_DATA
  hdf5_data_param {
    source: "/Users/JamesGuo/Documents/MasterThesis/landmark/caffe/facelandmark_data_train_list.txt"
    batch_size: 200
  }
  include {
    phase: TRAIN
  }
  transform_param {
    scale: 0.00390625
  }
}
layers {
  bottom: "data"
  top: "conv0"
  name: "conv0"
  type: CONVOLUTION
  blobs_lr: 1
  blobs_lr: 2
  convolution_param {
    num_output: 16
    kernel_size: 5
    stride: 1
    weight_filler {
      type: "xavier"
    }
    bias_filler {
      type: "constant"
    }
  }
}
layers {
  bottom: "conv0"
  top: "pool1"
  name: "pool1"
  type: POOLING
  pooling_param {
    pool: MAX
    kernel_size: 2
    stride: 2
  }
}
layers {
  bottom: "pool1"
  top: "conv2"
  name: "conv2"
  type: CONVOLUTION
  blobs_lr: 1
  blobs_lr: 2
  convolution_param {
    num_output: 48
    kernel_size: 3
    stride: 1
    weight_filler {
      type: "xavier"
    }
    bias_filler {
      type: "constant"
    }
  }
}
layers {
  bottom: "conv2"
  top: "pool3"
  name: "pool3"
  type: POOLING
  pooling_param {
    pool: MAX
    kernel_size: 2
    stride: 2
  }
}
layers {
  bottom: "pool3"
  top: "conv4"
  name: "conv4"
  type: CONVOLUTION
  blobs_lr: 1
  blobs_lr: 2
  convolution_param {
    num_output: 64
    kernel_size: 3
    stride: 1
    weight_filler {
      type: "xavier"
    }
    bias_filler {
      type: "constant"
    }
  }
}
layers {
  bottom: "conv4"
  top: "pool5"
  name: "pool5"
  type: POOLING
  pooling_param {
    pool: MAX
    kernel_size: 2
    stride: 2
  }
}
layers {
  bottom: "pool5"
  top: "conv6"
  name: "conv6"
  type: CONVOLUTION
  blobs_lr: 1
  blobs_lr: 2
  convolution_param {
    num_output: 120
    kernel_size: 3
    stride: 1
    weight_filler {
      type: "xavier"
    }
    bias_filler {
      type: "constant"
    }
  }
}
layers {
  bottom: "conv6"
  top: "ip1"
  name: "ip1"
  type: INNER_PRODUCT
  blobs_lr: 1
  blobs_lr: 2
  inner_product_param {
    num_output: 100
    weight_filler {
      type: "xavier"
    }
    bias_filler {
      type: "constant"
    }
  }
}
layers {
  bottom: "ip1"
  top: "ip1"
  name: "relu1"
  type: RELU
}
layers {
  bottom: "ip1"
  top: "ip2"
  name: "ip2"
  type: INNER_PRODUCT
  blobs_lr: 1
  blobs_lr: 2
  weight_decay: 1
  weight_decay: 0
  inner_product_param {
    num_output: 10
    weight_filler {
      type: "xavier"
    }
    bias_filler {
      type: "constant"
    }
  }
}
layers {
  bottom: "ip2"
  bottom: "label"
  top: "loss"
  name: "loss"
  type: EUCLIDEAN_LOSS
}
state {
  phase: TRAIN
}
I1231 00:24:34.799167 1992884992 layer_factory.hpp:78] Creating layer data1
I1231 00:24:34.799191 1992884992 net.cpp:67] Creating Layer data1
I1231 00:24:34.799203 1992884992 net.cpp:356] data1 -> data
I1231 00:24:34.799228 1992884992 net.cpp:356] data1 -> label
I1231 00:24:34.799239 1992884992 net.cpp:96] Setting up data1
I1231 00:24:34.799245 1992884992 hdf5_data_layer.cpp:63] Loading list of HDF5 filenames from: /Users/JamesGuo/Documents/MasterThesis/landmark/caffe/facelandmark_data_train_list.txt
I1231 00:24:34.799315 1992884992 hdf5_data_layer.cpp:77] Number of HDF5 files: 1
I1231 00:24:35.392297 1992884992 net.cpp:103] Top shape: 200 1 40 40 (320000)
I1231 00:24:35.392331 1992884992 net.cpp:103] Top shape: 200 10 1 1 (2000)
I1231 00:24:35.392339 1992884992 layer_factory.hpp:78] Creating layer conv0
I1231 00:24:35.392360 1992884992 net.cpp:67] Creating Layer conv0
I1231 00:24:35.392390 1992884992 net.cpp:394] conv0 <- data
I1231 00:24:35.392421 1992884992 net.cpp:356] conv0 -> conv0
I1231 00:24:35.392462 1992884992 net.cpp:96] Setting up conv0
I1231 00:24:35.399437 1992884992 net.cpp:103] Top shape: 200 16 36 36 (4147200)
I1231 00:24:35.399588 1992884992 layer_factory.hpp:78] Creating layer pool1
I1231 00:24:35.399869 1992884992 net.cpp:67] Creating Layer pool1
I1231 00:24:35.399957 1992884992 net.cpp:394] pool1 <- conv0
I1231 00:24:35.399991 1992884992 net.cpp:356] pool1 -> pool1
I1231 00:24:35.400077 1992884992 net.cpp:96] Setting up pool1
I1231 00:24:35.400166 1992884992 net.cpp:103] Top shape: 200 16 18 18 (1036800)
I1231 00:24:35.400224 1992884992 layer_factory.hpp:78] Creating layer conv2
I1231 00:24:35.400290 1992884992 net.cpp:67] Creating Layer conv2
I1231 00:24:35.400315 1992884992 net.cpp:394] conv2 <- pool1
I1231 00:24:35.400332 1992884992 net.cpp:356] conv2 -> conv2
I1231 00:24:35.400401 1992884992 net.cpp:96] Setting up conv2
I1231 00:24:35.400604 1992884992 net.cpp:103] Top shape: 200 48 16 16 (2457600)
I1231 00:24:35.400712 1992884992 layer_factory.hpp:78] Creating layer pool3
I1231 00:24:35.400753 1992884992 net.cpp:67] Creating Layer pool3
I1231 00:24:35.400787 1992884992 net.cpp:394] pool3 <- conv2
I1231 00:24:35.400813 1992884992 net.cpp:356] pool3 -> pool3
I1231 00:24:35.400857 1992884992 net.cpp:96] Setting up pool3
I1231 00:24:35.400878 1992884992 net.cpp:103] Top shape: 200 48 8 8 (614400)
I1231 00:24:35.400888 1992884992 layer_factory.hpp:78] Creating layer conv4
I1231 00:24:35.400913 1992884992 net.cpp:67] Creating Layer conv4
I1231 00:24:35.400931 1992884992 net.cpp:394] conv4 <- pool3
I1231 00:24:35.400948 1992884992 net.cpp:356] conv4 -> conv4
I1231 00:24:35.400966 1992884992 net.cpp:96] Setting up conv4
I1231 00:24:35.401347 1992884992 net.cpp:103] Top shape: 200 64 6 6 (460800)
I1231 00:24:35.401373 1992884992 layer_factory.hpp:78] Creating layer pool5
I1231 00:24:35.401386 1992884992 net.cpp:67] Creating Layer pool5
I1231 00:24:35.401393 1992884992 net.cpp:394] pool5 <- conv4
I1231 00:24:35.401403 1992884992 net.cpp:356] pool5 -> pool5
I1231 00:24:35.401414 1992884992 net.cpp:96] Setting up pool5
I1231 00:24:35.401423 1992884992 net.cpp:103] Top shape: 200 64 3 3 (115200)
I1231 00:24:35.401449 1992884992 layer_factory.hpp:78] Creating layer conv6
I1231 00:24:35.401473 1992884992 net.cpp:67] Creating Layer conv6
I1231 00:24:35.401484 1992884992 net.cpp:394] conv6 <- pool5
I1231 00:24:35.401497 1992884992 net.cpp:356] conv6 -> conv6
I1231 00:24:35.401516 1992884992 net.cpp:96] Setting up conv6
I1231 00:24:35.402158 1992884992 net.cpp:103] Top shape: 200 120 1 1 (24000)
I1231 00:24:35.402181 1992884992 layer_factory.hpp:78] Creating layer ip1
I1231 00:24:35.402200 1992884992 net.cpp:67] Creating Layer ip1
I1231 00:24:35.402209 1992884992 net.cpp:394] ip1 <- conv6
I1231 00:24:35.402218 1992884992 net.cpp:356] ip1 -> ip1
I1231 00:24:35.402230 1992884992 net.cpp:96] Setting up ip1
I1231 00:24:35.402366 1992884992 net.cpp:103] Top shape: 200 100 1 1 (20000)
I1231 00:24:35.402395 1992884992 layer_factory.hpp:78] Creating layer relu1
I1231 00:24:35.402410 1992884992 net.cpp:67] Creating Layer relu1
I1231 00:24:35.402416 1992884992 net.cpp:394] relu1 <- ip1
I1231 00:24:35.402425 1992884992 net.cpp:345] relu1 -> ip1 (in-place)
I1231 00:24:35.402453 1992884992 net.cpp:96] Setting up relu1
I1231 00:24:35.402473 1992884992 net.cpp:103] Top shape: 200 100 1 1 (20000)
I1231 00:24:35.402482 1992884992 layer_factory.hpp:78] Creating layer ip2
I1231 00:24:35.402493 1992884992 net.cpp:67] Creating Layer ip2
I1231 00:24:35.402498 1992884992 net.cpp:394] ip2 <- ip1
I1231 00:24:35.402513 1992884992 net.cpp:356] ip2 -> ip2
I1231 00:24:35.402528 1992884992 net.cpp:96] Setting up ip2
I1231 00:24:35.402720 1992884992 net.cpp:103] Top shape: 200 10 1 1 (2000)
I1231 00:24:35.402840 1992884992 layer_factory.hpp:78] Creating layer loss
I1231 00:24:35.402878 1992884992 net.cpp:67] Creating Layer loss
I1231 00:24:35.402917 1992884992 net.cpp:394] loss <- ip2
I1231 00:24:35.402964 1992884992 net.cpp:394] loss <- label
I1231 00:24:35.403008 1992884992 net.cpp:356] loss -> loss
I1231 00:24:35.403080 1992884992 net.cpp:96] Setting up loss
I1231 00:24:35.403121 1992884992 net.cpp:103] Top shape: 1 1 1 1 (1)
I1231 00:24:35.403208 1992884992 net.cpp:109]     with loss weight 1
I1231 00:24:35.403249 1992884992 net.cpp:170] loss needs backward computation.
I1231 00:24:35.403261 1992884992 net.cpp:170] ip2 needs backward computation.
I1231 00:24:35.403280 1992884992 net.cpp:170] relu1 needs backward computation.
I1231 00:24:35.403306 1992884992 net.cpp:170] ip1 needs backward computation.
I1231 00:24:35.403358 1992884992 net.cpp:170] conv6 needs backward computation.
…
