…
I0101 23:36:43.094043 1992884992 solver.cpp:67] Creating training net from net file: /Users/JamesGuo/Documents/MasterThesis/landmark/multilabellandmark_train_val.prototxt
I0101 23:36:43.095428 1992884992 net.cpp:275] The NetState phase (0) differed from the phase (1) specified by a rule in layer data1
I0101 23:36:43.095475 1992884992 net.cpp:39] Initializing net from parameters: 
name: "MultiLabelDetector"
layers {
  top: "data"
  top: "label"
  name: "data1"
  type: HDF5_DATA
  hdf5_data_param {
    source: "/Users/JamesGuo/Documents/MasterThesis/landmark/caffe/multilabellandmark_data_train_list.txt"
    batch_size: 200
  }
  include {
    phase: TRAIN
  }
  transform_param {
    scale: 0.00390625
  }
}
layers {
  bottom: "label"
  top: "pose"
  top: "landmark"
  name: "slice0"
  type: SLICE
  slice_param {
    slice_dim: 1
    slice_point: 3
  }
}
layers {
  bottom: "data"
  top: "conv0"
  name: "conv0"
  type: CONVOLUTION
  blobs_lr: 1
  blobs_lr: 2
  convolution_param {
    num_output: 16
    kernel_size: 5
    stride: 1
    weight_filler {
      type: "xavier"
    }
    bias_filler {
      type: "constant"
    }
  }
}
layers {
  bottom: "conv0"
  top: "pool1"
  name: "pool1"
  type: POOLING
  pooling_param {
    pool: MAX
    kernel_size: 2
    stride: 2
  }
}
layers {
  bottom: "pool1"
  top: "conv2"
  name: "conv2"
  type: CONVOLUTION
  blobs_lr: 1
  blobs_lr: 2
  convolution_param {
    num_output: 48
    kernel_size: 3
    stride: 1
    weight_filler {
      type: "xavier"
    }
    bias_filler {
      type: "constant"
    }
  }
}
layers {
  bottom: "conv2"
  top: "pool3"
  name: "pool3"
  type: POOLING
  pooling_param {
    pool: MAX
    kernel_size: 2
    stride: 2
  }
}
layers {
  bottom: "pool3"
  top: "conv4"
  name: "conv4"
  type: CONVOLUTION
  blobs_lr: 1
  blobs_lr: 2
  convolution_param {
    num_output: 64
    kernel_size: 3
    stride: 1
    weight_filler {
      type: "xavier"
    }
    bias_filler {
      type: "constant"
    }
  }
}
layers {
  bottom: "conv4"
  top: "pool5"
  name: "pool5"
  type: POOLING
  pooling_param {
    pool: MAX
    kernel_size: 2
    stride: 2
  }
}
layers {
  bottom: "pool5"
  top: "conv6"
  name: "conv6"
  type: CONVOLUTION
  blobs_lr: 1
  blobs_lr: 2
  convolution_param {
    num_output: 120
    kernel_size: 3
    stride: 1
    weight_filler {
      type: "xavier"
    }
    bias_filler {
      type: "constant"
    }
  }
}
layers {
  bottom: "conv6"
  top: "ip1"
  name: "ip1"
  type: INNER_PRODUCT
  blobs_lr: 1
  blobs_lr: 2
  inner_product_param {
    num_output: 100
    weight_filler {
      type: "xavier"
    }
    bias_filler {
      type: "constant"
    }
  }
}
layers {
  bottom: "ip1"
  top: "ip1"
  name: "relu1"
  type: RELU
}
layers {
  bottom: "ip1"
  top: "ip2"
  name: "ip2"
  type: INNER_PRODUCT
  blobs_lr: 1
  blobs_lr: 2
  weight_decay: 1
  weight_decay: 0
  inner_product_param {
    num_output: 10
    weight_filler {
      type: "xavier"
    }
    bias_filler {
      type: "constant"
    }
  }
}
layers {
  bottom: "ip1"
  top: "ip3"
  name: "ip3"
  type: INNER_PRODUCT
  blobs_lr: 1
  blobs_lr: 2
  weight_decay: 1
  weight_decay: 0
  inner_product_param {
    num_output: 3
    weight_filler {
      type: "xavier"
    }
    bias_filler {
      type: "constant"
    }
  }
}
layers {
  bottom: "ip3"
  bottom: "pose"
  top: "loss_pose"
  name: "loss_pose_"
  type: EUCLIDEAN_LOSS
  loss_weight: 0.8
}
layers {
  bottom: "ip2"
  bottom: "landmark"
  top: "loss_landmark"
  name: "loss_landmark_"
  type: EUCLIDEAN_LOSS
  loss_weight: 1
}
layers {
  bottom: "loss_pose"
  top: "ESLayer"
  name: "ES"
  type: EARLYSTOP
  earlystop_param {
    threshold: 0.001
    lamina: 0.8
    time_interval: 5
    path_tmp: "/Users/JamesGuo/Documents/MasterThesis/tmp.bin"
    iter_test: 138
    iter_train: 414
  }
}
state {
  phase: TRAIN
}
I0101 23:36:43.096119 1992884992 layer_factory.hpp:78] Creating layer data1
I0101 23:36:43.096150 1992884992 net.cpp:67] Creating Layer data1
I0101 23:36:43.096163 1992884992 net.cpp:356] data1 -> data
I0101 23:36:43.096195 1992884992 net.cpp:356] data1 -> label
I0101 23:36:43.096207 1992884992 net.cpp:96] Setting up data1
I0101 23:36:43.096215 1992884992 hdf5_data_layer.cpp:63] Loading list of HDF5 filenames from: /Users/JamesGuo/Documents/MasterThesis/landmark/caffe/multilabellandmark_data_train_list.txt
I0101 23:36:43.096766 1992884992 hdf5_data_layer.cpp:77] Number of HDF5 files: 1
I0101 23:36:44.109521 1992884992 net.cpp:103] Top shape: 200 1 40 40 (320000)
I0101 23:36:44.109596 1992884992 net.cpp:103] Top shape: 200 13 1 1 (2600)
I0101 23:36:44.109611 1992884992 layer_factory.hpp:78] Creating layer slice0
I0101 23:36:44.109654 1992884992 net.cpp:67] Creating Layer slice0
I0101 23:36:44.109730 1992884992 net.cpp:394] slice0 <- label
I0101 23:36:44.109771 1992884992 net.cpp:356] slice0 -> pose
I0101 23:36:44.109803 1992884992 net.cpp:356] slice0 -> landmark
I0101 23:36:44.109851 1992884992 net.cpp:96] Setting up slice0
I0101 23:36:44.109915 1992884992 net.cpp:103] Top shape: 200 3 1 1 (600)
I0101 23:36:44.109956 1992884992 net.cpp:103] Top shape: 200 10 1 1 (2000)
I0101 23:36:44.109982 1992884992 layer_factory.hpp:78] Creating layer conv0
I0101 23:36:44.110023 1992884992 net.cpp:67] Creating Layer conv0
I0101 23:36:44.110054 1992884992 net.cpp:394] conv0 <- data
I0101 23:36:44.110090 1992884992 net.cpp:356] conv0 -> conv0
I0101 23:36:44.110142 1992884992 net.cpp:96] Setting up conv0
I0101 23:36:44.121903 1992884992 net.cpp:103] Top shape: 200 16 36 36 (4147200)
I0101 23:36:44.121948 1992884992 layer_factory.hpp:78] Creating layer pool1
I0101 23:36:44.121958 1992884992 net.cpp:67] Creating Layer pool1
I0101 23:36:44.121963 1992884992 net.cpp:394] pool1 <- conv0
I0101 23:36:44.121984 1992884992 net.cpp:356] pool1 -> pool1
I0101 23:36:44.122002 1992884992 net.cpp:96] Setting up pool1
I0101 23:36:44.122021 1992884992 net.cpp:103] Top shape: 200 16 18 18 (1036800)
I0101 23:36:44.122066 1992884992 layer_factory.hpp:78] Creating layer conv2
I0101 23:36:44.122081 1992884992 net.cpp:67] Creating Layer conv2
I0101 23:36:44.122088 1992884992 net.cpp:394] conv2 <- pool1
I0101 23:36:44.122097 1992884992 net.cpp:356] conv2 -> conv2
I0101 23:36:44.122109 1992884992 net.cpp:96] Setting up conv2
I0101 23:36:44.122184 1992884992 net.cpp:103] Top shape: 200 48 16 16 (2457600)
I0101 23:36:44.122227 1992884992 layer_factory.hpp:78] Creating layer pool3
I0101 23:36:44.122246 1992884992 net.cpp:67] Creating Layer pool3
I0101 23:36:44.122256 1992884992 net.cpp:394] pool3 <- conv2
I0101 23:36:44.122282 1992884992 net.cpp:356] pool3 -> pool3
I0101 23:36:44.122306 1992884992 net.cpp:96] Setting up pool3
I0101 23:36:44.122318 1992884992 net.cpp:103] Top shape: 200 48 8 8 (614400)
I0101 23:36:44.122324 1992884992 layer_factory.hpp:78] Creating layer conv4
I0101 23:36:44.122345 1992884992 net.cpp:67] Creating Layer conv4
I0101 23:36:44.122360 1992884992 net.cpp:394] conv4 <- pool3
I0101 23:36:44.122372 1992884992 net.cpp:356] conv4 -> conv4
I0101 23:36:44.122397 1992884992 net.cpp:96] Setting up conv4
I0101 23:36:44.122769 1992884992 net.cpp:103] Top shape: 200 64 6 6 (460800)
I0101 23:36:44.122799 1992884992 layer_factory.hpp:78] Creating layer pool5
I0101 23:36:44.122817 1992884992 net.cpp:67] Creating Layer pool5
I0101 23:36:44.122823 1992884992 net.cpp:394] pool5 <- conv4
I0101 23:36:44.122848 1992884992 net.cpp:356] pool5 -> pool5
I0101 23:36:44.122867 1992884992 net.cpp:96] Setting up pool5
I0101 23:36:44.122879 1992884992 net.cpp:103] Top shape: 200 64 3 3 (115200)
I0101 23:36:44.122890 1992884992 layer_factory.hpp:78] Creating layer conv6
I0101 23:36:44.123201 1992884992 net.cpp:67] Creating Layer conv6
I0101 23:36:44.123375 1992884992 net.cpp:394] conv6 <- pool5
I0101 23:36:44.123625 1992884992 net.cpp:356] conv6 -> conv6
I0101 23:36:44.123793 1992884992 net.cpp:96] Setting up conv6
I0101 23:36:44.124562 1992884992 net.cpp:103] Top shape: 200 120 1 1 (24000)
I0101 23:36:44.124601 1992884992 layer_factory.hpp:78] Creating layer ip1
I0101 23:36:44.124632 1992884992 net.cpp:67] Creating Layer ip1
I0101 23:36:44.124644 1992884992 net.cpp:394] ip1 <- conv6
I0101 23:36:44.124703 1992884992 net.cpp:356] ip1 -> ip1
I0101 23:36:44.124730 1992884992 net.cpp:96] Setting up ip1
I0101 23:36:44.125104 1992884992 net.cpp:103] Top shape: 200 100 1 1 (20000)
I0101 23:36:44.125160 1992884992 layer_factory.hpp:78] Creating layer relu1
I0101 23:36:44.125242 1992884992 net.cpp:67] Creating Layer relu1
I0101 23:36:44.125267 1992884992 net.cpp:394] relu1 <- ip1
I0101 23:36:44.125284 1992884992 net.cpp:345] relu1 -> ip1 (in-place)
I0101 23:36:44.125303 1992884992 net.cpp:96] Setting up relu1
I0101 23:36:44.125313 1992884992 net.cpp:103] Top shape: 200 100 1 1 (20000)
I0101 23:36:44.125319 1992884992 layer_factory.hpp:78] Creating layer ip1_relu1_0_split
I0101 23:36:44.125355 1992884992 net.cpp:67] Creating Layer ip1_relu1_0_split
I0101 23:36:44.125365 1992884992 net.cpp:394] ip1_relu1_0_split <- ip1
I0101 23:36:44.125375 1992884992 net.cpp:356] ip1_relu1_0_split -> ip1_relu1_0_split_0
I0101 23:36:44.125390 1992884992 net.cpp:356] ip1_relu1_0_split -> ip1_relu1_0_split_1
I0101 23:36:44.125401 1992884992 net.cpp:96] Setting up ip1_relu1_0_split
I0101 23:36:44.125408 1992884992 net.cpp:103] Top shape: 200 100 1 1 (20000)
I0101 23:36:44.125413 1992884992 net.cpp:103] Top shape: 200 100 1 1 (20000)
I0101 23:36:44.125418 1992884992 layer_factory.hpp:78] Creating layer ip2
I0101 23:36:44.125430 1992884992 net.cpp:67] Creating Layer ip2
I0101 23:36:44.125452 1992884992 net.cpp:394] ip2 <- ip1_relu1_0_split_0
I0101 23:36:44.125461 1992884992 net.cpp:356] ip2 -> ip2
I0101 23:36:44.125473 1992884992 net.cpp:96] Setting up ip2
I0101 23:36:44.125502 1992884992 net.cpp:103] Top shape: 200 10 1 1 (2000)
I0101 23:36:44.125516 1992884992 layer_factory.hpp:78] Creating layer ip3
I0101 23:36:44.125525 1992884992 net.cpp:67] Creating Layer ip3
I0101 23:36:44.125530 1992884992 net.cpp:394] ip3 <- ip1_relu1_0_split_1
I0101 23:36:44.125538 1992884992 net.cpp:356] ip3 -> ip3
I0101 23:36:44.125547 1992884992 net.cpp:96] Setting up ip3
I0101 23:36:44.125571 1992884992 net.cpp:103] Top shape: 200 3 1 1 (600)
I0101 23:36:44.125578 1992884992 layer_factory.hpp:78] Creating layer loss_pose_
I0101 23:36:44.125588 1992884992 net.cpp:67] Creating Layer loss_pose_
I0101 23:36:44.125593 1992884992 net.cpp:394] loss_pose_ <- ip3
I0101 23:36:44.125599 1992884992 net.cpp:394] loss_pose_ <- pose
I0101 23:36:44.125627 1992884992 net.cpp:356] loss_pose_ -> loss_pose
I0101 23:36:44.125646 1992884992 net.cpp:96] Setting up loss_pose_
I0101 23:36:44.125658 1992884992 net.cpp:103] Top shape: 1 1 1 1 (1)
I0101 23:36:44.125666 1992884992 net.cpp:109]     with loss weight 1
I0101 23:36:44.125687 1992884992 layer_factory.hpp:78] Creating layer loss_pose_loss_pose__0_split
I0101 23:36:44.125697 1992884992 net.cpp:67] Creating Layer loss_pose_loss_pose__0_split
I0101 23:36:44.125705 1992884992 net.cpp:394] loss_pose_loss_pose__0_split <- loss_pose
I0101 23:36:44.125720 1992884992 net.cpp:356] loss_pose_loss_pose__0_split -> loss_pose_loss_pose__0_split_0
I0101 23:36:44.125733 1992884992 net.cpp:356] loss_pose_loss_pose__0_split -> loss_pose_loss_pose__0_split_1
I0101 23:36:44.125743 1992884992 net.cpp:96] Setting up loss_pose_loss_pose__0_split
I0101 23:36:44.125766 1992884992 net.cpp:103] Top shape: 1 1 1 1 (1)
I0101 23:36:44.125773 1992884992 net.cpp:109]     with loss weight 0.8
I0101 23:36:44.125782 1992884992 net.cpp:103] Top shape: 1 1 1 1 (1)
I0101 23:36:44.125787 1992884992 layer_factory.hpp:78] Creating layer loss_landmark_
I0101 23:36:44.125838 1992884992 net.cpp:67] Creating Layer loss_landmark_
I0101 23:36:44.125865 1992884992 net.cpp:394] loss_landmark_ <- ip2
I0101 23:36:44.125881 1992884992 net.cpp:394] loss_landmark_ <- landmark
I0101 23:36:44.125900 1992884992 net.cpp:356] loss_landmark_ -> loss_landmark
I0101 23:36:44.125910 1992884992 net.cpp:96] Setting up loss_landmark_
I0101 23:36:44.125918 1992884992 net.cpp:103] Top shape: 1 1 1 1 (1)
I0101 23:36:44.125926 1992884992 net.cpp:109]     with loss weight 1
I0101 23:36:44.125934 1992884992 layer_factory.hpp:78] Creating layer ES
I0101 23:36:44.125949 1992884992 net.cpp:67] Creating Layer ES
I0101 23:36:44.125957 1992884992 net.cpp:394] ES <- loss_pose_loss_pose__0_split_1
I0101 23:36:44.125965 1992884992 net.cpp:356] ES -> ESLayer
I0101 23:36:44.126003 1992884992 net.cpp:96] Setting up ES
I0101 23:36:44.126018 1992884992 net.cpp:103] Top shape: 1 1 1 1 (1)
I0101 23:36:44.126025 1992884992 net.cpp:172] ES does not need backward computation.
I0101 23:36:44.126031 1992884992 net.cpp:170] loss_landmark_ needs backward computation.
I0101 23:36:44.126037 1992884992 net.cpp:170] loss_pose_loss_pose__0_split needs backward computation.
I0101 23:36:44.126052 1992884992 net.cpp:170] loss_pose_ needs backward computation.
I0101 23:36:44.126060 1992884992 net.cpp:170] ip3 needs backward computation.
…
