…
I1223 18:46:24.485887 2009993984 solver.cpp:67] Creating training net from net file: /Users/JamesGuo/Documents/MasterThesis/landmark/multilabellandmark_train_val.prototxt
I1223 18:46:24.488718 2009993984 net.cpp:275] The NetState phase (0) differed from the phase (1) specified by a rule in layer data1
I1223 18:46:24.488759 2009993984 net.cpp:39] Initializing net from parameters: 
name: "MultiLabelDetector"
layers {
  top: "data"
  top: "label"
  name: "data1"
  type: HDF5_DATA
  hdf5_data_param {
    source: "/Users/JamesGuo/Documents/MasterThesis/landmark/caffe/multilabellandmark_data_train_list.txt"
    batch_size: 200
  }
  include {
    phase: TRAIN
  }
  transform_param {
    scale: 0.00390625
  }
}
layers {
  bottom: "label"
  top: "pose"
  top: "landmark"
  name: "slice0"
  type: SLICE
  slice_param {
    slice_dim: 1
    slice_point: 3
  }
}
layers {
  bottom: "data"
  top: "conv0"
  name: "conv0"
  type: CONVOLUTION
  blobs_lr: 1
  blobs_lr: 2
  convolution_param {
    num_output: 16
    kernel_size: 5
    stride: 1
    weight_filler {
      type: "xavier"
    }
    bias_filler {
      type: "constant"
    }
  }
}
layers {
  bottom: "conv0"
  top: "pool1"
  name: "pool1"
  type: POOLING
  pooling_param {
    pool: MAX
    kernel_size: 2
    stride: 2
  }
}
layers {
  bottom: "pool1"
  top: "conv2"
  name: "conv2"
  type: CONVOLUTION
  blobs_lr: 1
  blobs_lr: 2
  convolution_param {
    num_output: 48
    kernel_size: 3
    stride: 1
    weight_filler {
      type: "xavier"
    }
    bias_filler {
      type: "constant"
    }
  }
}
layers {
  bottom: "conv2"
  top: "pool3"
  name: "pool3"
  type: POOLING
  pooling_param {
    pool: MAX
    kernel_size: 2
    stride: 2
  }
}
layers {
  bottom: "pool3"
  top: "conv4"
  name: "conv4"
  type: CONVOLUTION
  blobs_lr: 1
  blobs_lr: 2
  convolution_param {
    num_output: 64
    kernel_size: 3
    stride: 1
    weight_filler {
      type: "xavier"
    }
    bias_filler {
      type: "constant"
    }
  }
}
layers {
  bottom: "conv4"
  top: "pool5"
  name: "pool5"
  type: POOLING
  pooling_param {
    pool: MAX
    kernel_size: 2
    stride: 2
  }
}
layers {
  bottom: "pool5"
  top: "conv6"
  name: "conv6"
  type: CONVOLUTION
  blobs_lr: 1
  blobs_lr: 2
  convolution_param {
    num_output: 120
    kernel_size: 3
    stride: 1
    weight_filler {
      type: "xavier"
    }
    bias_filler {
      type: "constant"
    }
  }
}
layers {
  bottom: "conv6"
  top: "ip1"
  name: "ip1"
  type: INNER_PRODUCT
  blobs_lr: 1
  blobs_lr: 2
  inner_product_param {
    num_output: 100
    weight_filler {
      type: "xavier"
    }
    bias_filler {
      type: "constant"
    }
  }
}
layers {
  bottom: "ip1"
  top: "ip1"
  name: "relu1"
  type: RELU
}
layers {
  bottom: "ip1"
  top: "ip2"
  name: "ip2"
  type: INNER_PRODUCT
  blobs_lr: 1
  blobs_lr: 2
  weight_decay: 1
  weight_decay: 0
  inner_product_param {
    num_output: 10
    weight_filler {
      type: "xavier"
    }
    bias_filler {
      type: "constant"
    }
  }
}
layers {
  bottom: "ip1"
  top: "ip3"
  name: "ip3"
  type: INNER_PRODUCT
  blobs_lr: 1
  blobs_lr: 2
  weight_decay: 1
  weight_decay: 0
  inner_product_param {
    num_output: 3
    weight_filler {
      type: "xavier"
    }
    bias_filler {
      type: "constant"
    }
  }
}
layers {
  bottom: "ip3"
  bottom: "pose"
  top: "loss_pose"
  name: "loss_pose_"
  type: EUCLIDEAN_LOSS
  loss_weight: 0.8
}
layers {
  bottom: "ip2"
  bottom: "landmark"
  top: "loss_landmark"
  name: "loss_landmark_"
  type: EUCLIDEAN_LOSS
  loss_weight: 1
}
layers {
  bottom: "loss_pose"
  top: "ESLayer"
  name: "ES"
  type: EARLYSTOP
  earlystop_param {
    threshold: 0.1
    lamina: 0.8
    time_interval: 5
    path_tmp: "/Users/JamesGuo/Documents/MasterThesis/tmp.bin"
    iter_test: 138
    iter_train: 414
  }
}
state {
  phase: TRAIN
}
I1223 18:46:24.489142 2009993984 layer_factory.hpp:78] Creating layer data1
I1223 18:46:24.489161 2009993984 net.cpp:67] Creating Layer data1
I1223 18:46:24.489174 2009993984 net.cpp:356] data1 -> data
I1223 18:46:24.489195 2009993984 net.cpp:356] data1 -> label
I1223 18:46:24.489205 2009993984 net.cpp:96] Setting up data1
I1223 18:46:24.489210 2009993984 hdf5_data_layer.cpp:63] Loading list of HDF5 filenames from: /Users/JamesGuo/Documents/MasterThesis/landmark/caffe/multilabellandmark_data_train_list.txt
I1223 18:46:24.489550 2009993984 hdf5_data_layer.cpp:77] Number of HDF5 files: 1
I1223 18:46:25.375056 2009993984 net.cpp:103] Top shape: 200 1 40 40 (320000)
I1223 18:46:25.375079 2009993984 net.cpp:103] Top shape: 200 13 1 1 (2600)
I1223 18:46:25.375084 2009993984 layer_factory.hpp:78] Creating layer slice0
I1223 18:46:25.375099 2009993984 net.cpp:67] Creating Layer slice0
I1223 18:46:25.375104 2009993984 net.cpp:394] slice0 <- label
I1223 18:46:25.375118 2009993984 net.cpp:356] slice0 -> pose
I1223 18:46:25.375129 2009993984 net.cpp:356] slice0 -> landmark
I1223 18:46:25.375136 2009993984 net.cpp:96] Setting up slice0
I1223 18:46:25.375144 2009993984 net.cpp:103] Top shape: 200 3 1 1 (600)
I1223 18:46:25.375149 2009993984 net.cpp:103] Top shape: 200 10 1 1 (2000)
I1223 18:46:25.375152 2009993984 layer_factory.hpp:78] Creating layer conv0
I1223 18:46:25.375159 2009993984 net.cpp:67] Creating Layer conv0
I1223 18:46:25.375164 2009993984 net.cpp:394] conv0 <- data
I1223 18:46:25.375170 2009993984 net.cpp:356] conv0 -> conv0
I1223 18:46:25.375180 2009993984 net.cpp:96] Setting up conv0
I1223 18:46:25.379756 2009993984 net.cpp:103] Top shape: 200 16 36 36 (4147200)
I1223 18:46:25.379781 2009993984 layer_factory.hpp:78] Creating layer pool1
I1223 18:46:25.379799 2009993984 net.cpp:67] Creating Layer pool1
I1223 18:46:25.379809 2009993984 net.cpp:394] pool1 <- conv0
I1223 18:46:25.379818 2009993984 net.cpp:356] pool1 -> pool1
I1223 18:46:25.379828 2009993984 net.cpp:96] Setting up pool1
I1223 18:46:25.379840 2009993984 net.cpp:103] Top shape: 200 16 18 18 (1036800)
I1223 18:46:25.379843 2009993984 layer_factory.hpp:78] Creating layer conv2
I1223 18:46:25.379868 2009993984 net.cpp:67] Creating Layer conv2
I1223 18:46:25.379879 2009993984 net.cpp:394] conv2 <- pool1
I1223 18:46:25.379891 2009993984 net.cpp:356] conv2 -> conv2
I1223 18:46:25.379904 2009993984 net.cpp:96] Setting up conv2
I1223 18:46:25.379986 2009993984 net.cpp:103] Top shape: 200 48 16 16 (2457600)
I1223 18:46:25.379999 2009993984 layer_factory.hpp:78] Creating layer pool3
I1223 18:46:25.380009 2009993984 net.cpp:67] Creating Layer pool3
I1223 18:46:25.380015 2009993984 net.cpp:394] pool3 <- conv2
I1223 18:46:25.380023 2009993984 net.cpp:356] pool3 -> pool3
I1223 18:46:25.380033 2009993984 net.cpp:96] Setting up pool3
I1223 18:46:25.380041 2009993984 net.cpp:103] Top shape: 200 48 8 8 (614400)
I1223 18:46:25.380046 2009993984 layer_factory.hpp:78] Creating layer conv4
I1223 18:46:25.380077 2009993984 net.cpp:67] Creating Layer conv4
I1223 18:46:25.380092 2009993984 net.cpp:394] conv4 <- pool3
I1223 18:46:25.380103 2009993984 net.cpp:356] conv4 -> conv4
I1223 18:46:25.380123 2009993984 net.cpp:96] Setting up conv4
I1223 18:46:25.380377 2009993984 net.cpp:103] Top shape: 200 64 6 6 (460800)
I1223 18:46:25.380398 2009993984 layer_factory.hpp:78] Creating layer pool5
I1223 18:46:25.380403 2009993984 net.cpp:67] Creating Layer pool5
I1223 18:46:25.380408 2009993984 net.cpp:394] pool5 <- conv4
I1223 18:46:25.380425 2009993984 net.cpp:356] pool5 -> pool5
I1223 18:46:25.380442 2009993984 net.cpp:96] Setting up pool5
I1223 18:46:25.380448 2009993984 net.cpp:103] Top shape: 200 64 3 3 (115200)
I1223 18:46:25.380453 2009993984 layer_factory.hpp:78] Creating layer conv6
I1223 18:46:25.380488 2009993984 net.cpp:67] Creating Layer conv6
I1223 18:46:25.380494 2009993984 net.cpp:394] conv6 <- pool5
I1223 18:46:25.380503 2009993984 net.cpp:356] conv6 -> conv6
I1223 18:46:25.380513 2009993984 net.cpp:96] Setting up conv6
I1223 18:46:25.380944 2009993984 net.cpp:103] Top shape: 200 120 1 1 (24000)
I1223 18:46:25.380969 2009993984 layer_factory.hpp:78] Creating layer ip1
I1223 18:46:25.380980 2009993984 net.cpp:67] Creating Layer ip1
I1223 18:46:25.380997 2009993984 net.cpp:394] ip1 <- conv6
I1223 18:46:25.381016 2009993984 net.cpp:356] ip1 -> ip1
I1223 18:46:25.381024 2009993984 net.cpp:96] Setting up ip1
I1223 18:46:25.381120 2009993984 net.cpp:103] Top shape: 200 100 1 1 (20000)
I1223 18:46:25.381134 2009993984 layer_factory.hpp:78] Creating layer relu1
I1223 18:46:25.381151 2009993984 net.cpp:67] Creating Layer relu1
I1223 18:46:25.381158 2009993984 net.cpp:394] relu1 <- ip1
I1223 18:46:25.381166 2009993984 net.cpp:345] relu1 -> ip1 (in-place)
I1223 18:46:25.381175 2009993984 net.cpp:96] Setting up relu1
I1223 18:46:25.381181 2009993984 net.cpp:103] Top shape: 200 100 1 1 (20000)
I1223 18:46:25.381204 2009993984 layer_factory.hpp:78] Creating layer ip1_relu1_0_split
I1223 18:46:25.381222 2009993984 net.cpp:67] Creating Layer ip1_relu1_0_split
I1223 18:46:25.381248 2009993984 net.cpp:394] ip1_relu1_0_split <- ip1
I1223 18:46:25.381260 2009993984 net.cpp:356] ip1_relu1_0_split -> ip1_relu1_0_split_0
I1223 18:46:25.381273 2009993984 net.cpp:356] ip1_relu1_0_split -> ip1_relu1_0_split_1
I1223 18:46:25.381283 2009993984 net.cpp:96] Setting up ip1_relu1_0_split
I1223 18:46:25.381289 2009993984 net.cpp:103] Top shape: 200 100 1 1 (20000)
I1223 18:46:25.381294 2009993984 net.cpp:103] Top shape: 200 100 1 1 (20000)
I1223 18:46:25.381299 2009993984 layer_factory.hpp:78] Creating layer ip2
I1223 18:46:25.381307 2009993984 net.cpp:67] Creating Layer ip2
I1223 18:46:25.381314 2009993984 net.cpp:394] ip2 <- ip1_relu1_0_split_0
I1223 18:46:25.381332 2009993984 net.cpp:356] ip2 -> ip2
I1223 18:46:25.381364 2009993984 net.cpp:96] Setting up ip2
I1223 18:46:25.381386 2009993984 net.cpp:103] Top shape: 200 10 1 1 (2000)
I1223 18:46:25.381397 2009993984 layer_factory.hpp:78] Creating layer ip3
I1223 18:46:25.381405 2009993984 net.cpp:67] Creating Layer ip3
I1223 18:46:25.381410 2009993984 net.cpp:394] ip3 <- ip1_relu1_0_split_1
I1223 18:46:25.381423 2009993984 net.cpp:356] ip3 -> ip3
I1223 18:46:25.381433 2009993984 net.cpp:96] Setting up ip3
I1223 18:46:25.381469 2009993984 net.cpp:103] Top shape: 200 3 1 1 (600)
I1223 18:46:25.381479 2009993984 layer_factory.hpp:78] Creating layer loss_pose_
I1223 18:46:25.381491 2009993984 net.cpp:67] Creating Layer loss_pose_
I1223 18:46:25.381506 2009993984 net.cpp:394] loss_pose_ <- ip3
I1223 18:46:25.381515 2009993984 net.cpp:394] loss_pose_ <- pose
I1223 18:46:25.381535 2009993984 net.cpp:356] loss_pose_ -> loss_pose
I1223 18:46:25.381549 2009993984 net.cpp:96] Setting up loss_pose_
I1223 18:46:25.381558 2009993984 net.cpp:103] Top shape: 1 1 1 1 (1)
I1223 18:46:25.381566 2009993984 net.cpp:109]     with loss weight 1
I1223 18:46:25.381580 2009993984 layer_factory.hpp:78] Creating layer loss_pose_loss_pose__0_split
I1223 18:46:25.381592 2009993984 net.cpp:67] Creating Layer loss_pose_loss_pose__0_split
I1223 18:46:25.381599 2009993984 net.cpp:394] loss_pose_loss_pose__0_split <- loss_pose
I1223 18:46:25.381608 2009993984 net.cpp:356] loss_pose_loss_pose__0_split -> loss_pose_loss_pose__0_split_0
I1223 18:46:25.381629 2009993984 net.cpp:356] loss_pose_loss_pose__0_split -> loss_pose_loss_pose__0_split_1
I1223 18:46:25.381640 2009993984 net.cpp:96] Setting up loss_pose_loss_pose__0_split
I1223 18:46:25.381649 2009993984 net.cpp:103] Top shape: 1 1 1 1 (1)
I1223 18:46:25.381655 2009993984 net.cpp:109]     with loss weight 0.8
I1223 18:46:25.381665 2009993984 net.cpp:103] Top shape: 1 1 1 1 (1)
I1223 18:46:25.381669 2009993984 layer_factory.hpp:78] Creating layer loss_landmark_
I1223 18:46:25.381675 2009993984 net.cpp:67] Creating Layer loss_landmark_
I1223 18:46:25.381716 2009993984 net.cpp:394] loss_landmark_ <- ip2
I1223 18:46:25.381727 2009993984 net.cpp:394] loss_landmark_ <- landmark
I1223 18:46:25.381737 2009993984 net.cpp:356] loss_landmark_ -> loss_landmark
I1223 18:46:25.381748 2009993984 net.cpp:96] Setting up loss_landmark_
I1223 18:46:25.381757 2009993984 net.cpp:103] Top shape: 1 1 1 1 (1)
I1223 18:46:25.381759 2009993984 net.cpp:109]     with loss weight 1
I1223 18:46:25.381764 2009993984 layer_factory.hpp:78] Creating layer ES
I1223 18:46:25.381784 2009993984 net.cpp:67] Creating Layer ES
I1223 18:46:25.381795 2009993984 net.cpp:394] ES <- loss_pose_loss_pose__0_split_1
I1223 18:46:25.381804 2009993984 net.cpp:356] ES -> ESLayer
I1223 18:46:25.381815 2009993984 net.cpp:96] Setting up ES
I1223 18:46:25.381824 2009993984 net.cpp:103] Top shape: 1 1 1 1 (1)
I1223 18:46:25.381831 2009993984 net.cpp:172] ES does not need backward computation.
I1223 18:46:25.381835 2009993984 net.cpp:170] loss_landmark_ needs backward computation.
I1223 18:46:25.381841 2009993984 net.cpp:170] loss_pose_loss_pose__0_split needs backward computation.
I1223 18:46:25.381849 2009993984 net.cpp:170] loss_pose_ needs backward computation.
I1223 18:46:25.381851 2009993984 net.cpp:170] ip3 needs backward computation.
…
