…
I1217 13:06:51.794981 1990406912 solver.cpp:67] Creating training net from net file: /Users/JamesGuo/Documents/MasterThesis/landmark/multilabellandmark_train_val.prototxt
I1217 13:06:51.797363 1990406912 net.cpp:275] The NetState phase (0) differed from the phase (1) specified by a rule in layer data1
I1217 13:06:51.797399 1990406912 net.cpp:39] Initializing net from parameters: 
name: "MultiLabelDetector"
layers {
  top: "data"
  top: "label"
  name: "data1"
  type: HDF5_DATA
  hdf5_data_param {
    source: "/Users/JamesGuo/Documents/MasterThesis/landmark/caffe/multilabellandmark_data_train_list.txt"
    batch_size: 200
  }
  include {
    phase: TRAIN
  }
  transform_param {
    scale: 0.00390625
  }
}
layers {
  bottom: "label"
  top: "pose"
  top: "landmark"
  name: "slice0"
  type: SLICE
  slice_param {
    slice_dim: 1
    slice_point: 3
  }
}
layers {
  bottom: "data"
  top: "conv0"
  name: "conv0"
  type: CONVOLUTION
  blobs_lr: 1
  blobs_lr: 2
  convolution_param {
    num_output: 16
    kernel_size: 5
    stride: 1
    weight_filler {
      type: "xavier"
    }
    bias_filler {
      type: "constant"
    }
  }
}
layers {
  bottom: "conv0"
  top: "pool1"
  name: "pool1"
  type: POOLING
  pooling_param {
    pool: MAX
    kernel_size: 2
    stride: 2
  }
}
layers {
  bottom: "pool1"
  top: "conv2"
  name: "conv2"
  type: CONVOLUTION
  blobs_lr: 1
  blobs_lr: 2
  convolution_param {
    num_output: 48
    kernel_size: 3
    stride: 1
    weight_filler {
      type: "xavier"
    }
    bias_filler {
      type: "constant"
    }
  }
}
layers {
  bottom: "conv2"
  top: "pool3"
  name: "pool3"
  type: POOLING
  pooling_param {
    pool: MAX
    kernel_size: 2
    stride: 2
  }
}
layers {
  bottom: "pool3"
  top: "conv4"
  name: "conv4"
  type: CONVOLUTION
  blobs_lr: 1
  blobs_lr: 2
  convolution_param {
    num_output: 64
    kernel_size: 3
    stride: 1
    weight_filler {
      type: "xavier"
    }
    bias_filler {
      type: "constant"
    }
  }
}
layers {
  bottom: "conv4"
  top: "pool5"
  name: "pool5"
  type: POOLING
  pooling_param {
    pool: MAX
    kernel_size: 2
    stride: 2
  }
}
layers {
  bottom: "pool5"
  top: "conv6"
  name: "conv6"
  type: CONVOLUTION
  blobs_lr: 1
  blobs_lr: 2
  convolution_param {
    num_output: 120
    kernel_size: 3
    stride: 1
    weight_filler {
      type: "xavier"
    }
    bias_filler {
      type: "constant"
    }
  }
}
layers {
  bottom: "conv6"
  top: "ip1"
  name: "ip1"
  type: INNER_PRODUCT
  blobs_lr: 1
  blobs_lr: 2
  inner_product_param {
    num_output: 100
    weight_filler {
      type: "xavier"
    }
    bias_filler {
      type: "constant"
    }
  }
}
layers {
  bottom: "ip1"
  top: "ip1"
  name: "relu1"
  type: RELU
}
layers {
  bottom: "ip1"
  top: "ip2"
  name: "ip2"
  type: INNER_PRODUCT
  blobs_lr: 1
  blobs_lr: 2
  weight_decay: 1
  weight_decay: 0
  inner_product_param {
    num_output: 10
    weight_filler {
      type: "xavier"
    }
    bias_filler {
      type: "constant"
    }
  }
}
layers {
  bottom: "ip1"
  top: "ip3"
  name: "ip3"
  type: INNER_PRODUCT
  blobs_lr: 1
  blobs_lr: 2
  weight_decay: 1
  weight_decay: 0
  inner_product_param {
    num_output: 3
    weight_filler {
      type: "xavier"
    }
    bias_filler {
      type: "constant"
    }
  }
}
layers {
  bottom: "ip3"
  bottom: "pose"
  top: "loss_pose"
  name: "loss_pose_"
  type: EUCLIDEAN_LOSS
  loss_weight: 0.8
}
layers {
  bottom: "ip2"
  bottom: "landmark"
  top: "loss_landmark"
  name: "loss_landmark_"
  type: EUCLIDEAN_LOSS
  loss_weight: 1
}
layers {
  bottom: "loss_pose"
  top: "ESLayer"
  name: "ES"
  type: EARLYSTOP
  earlystop_param {
    threshold: 0.1
    lamina: 0.8
    time_interval: 5
    path_tmp: "/Users/JamesGuo/Documents/MasterThesis/tmp.bin"
    iter_test: 138
    iter_train: 414
  }
}
state {
  phase: TRAIN
}
I1217 13:06:51.797914 1990406912 layer_factory.hpp:78] Creating layer data1
I1217 13:06:51.797940 1990406912 net.cpp:67] Creating Layer data1
I1217 13:06:51.797953 1990406912 net.cpp:356] data1 -> data
I1217 13:06:51.797981 1990406912 net.cpp:356] data1 -> label
I1217 13:06:51.797996 1990406912 net.cpp:96] Setting up data1
I1217 13:06:51.798003 1990406912 hdf5_data_layer.cpp:63] Loading list of HDF5 filenames from: /Users/JamesGuo/Documents/MasterThesis/landmark/caffe/multilabellandmark_data_train_list.txt
I1217 13:06:51.798053 1990406912 hdf5_data_layer.cpp:77] Number of HDF5 files: 1
I1217 13:06:52.102996 1990406912 net.cpp:103] Top shape: 200 1 40 40 (320000)
I1217 13:06:52.103020 1990406912 net.cpp:103] Top shape: 200 13 1 1 (2600)
I1217 13:06:52.103026 1990406912 layer_factory.hpp:78] Creating layer slice0
I1217 13:06:52.103039 1990406912 net.cpp:67] Creating Layer slice0
I1217 13:06:52.103044 1990406912 net.cpp:394] slice0 <- label
I1217 13:06:52.103054 1990406912 net.cpp:356] slice0 -> pose
I1217 13:06:52.103070 1990406912 net.cpp:356] slice0 -> landmark
I1217 13:06:52.103080 1990406912 net.cpp:96] Setting up slice0
I1217 13:06:52.103091 1990406912 net.cpp:103] Top shape: 200 3 1 1 (600)
I1217 13:06:52.103098 1990406912 net.cpp:103] Top shape: 200 10 1 1 (2000)
I1217 13:06:52.103104 1990406912 layer_factory.hpp:78] Creating layer conv0
I1217 13:06:52.103116 1990406912 net.cpp:67] Creating Layer conv0
I1217 13:06:52.103121 1990406912 net.cpp:394] conv0 <- data
I1217 13:06:52.103132 1990406912 net.cpp:356] conv0 -> conv0
I1217 13:06:52.103147 1990406912 net.cpp:96] Setting up conv0
I1217 13:06:52.108516 1990406912 net.cpp:103] Top shape: 200 16 36 36 (4147200)
I1217 13:06:52.108551 1990406912 layer_factory.hpp:78] Creating layer pool1
I1217 13:06:52.108566 1990406912 net.cpp:67] Creating Layer pool1
I1217 13:06:52.108569 1990406912 net.cpp:394] pool1 <- conv0
I1217 13:06:52.108577 1990406912 net.cpp:356] pool1 -> pool1
I1217 13:06:52.108585 1990406912 net.cpp:96] Setting up pool1
I1217 13:06:52.108595 1990406912 net.cpp:103] Top shape: 200 16 18 18 (1036800)
I1217 13:06:52.108599 1990406912 layer_factory.hpp:78] Creating layer conv2
I1217 13:06:52.108608 1990406912 net.cpp:67] Creating Layer conv2
I1217 13:06:52.108610 1990406912 net.cpp:394] conv2 <- pool1
I1217 13:06:52.108615 1990406912 net.cpp:356] conv2 -> conv2
I1217 13:06:52.108621 1990406912 net.cpp:96] Setting up conv2
I1217 13:06:52.108670 1990406912 net.cpp:103] Top shape: 200 48 16 16 (2457600)
I1217 13:06:52.108680 1990406912 layer_factory.hpp:78] Creating layer pool3
I1217 13:06:52.108690 1990406912 net.cpp:67] Creating Layer pool3
I1217 13:06:52.108695 1990406912 net.cpp:394] pool3 <- conv2
I1217 13:06:52.108705 1990406912 net.cpp:356] pool3 -> pool3
I1217 13:06:52.108714 1990406912 net.cpp:96] Setting up pool3
I1217 13:06:52.108722 1990406912 net.cpp:103] Top shape: 200 48 8 8 (614400)
I1217 13:06:52.108728 1990406912 layer_factory.hpp:78] Creating layer conv4
I1217 13:06:52.108736 1990406912 net.cpp:67] Creating Layer conv4
I1217 13:06:52.108742 1990406912 net.cpp:394] conv4 <- pool3
I1217 13:06:52.108752 1990406912 net.cpp:356] conv4 -> conv4
I1217 13:06:52.108762 1990406912 net.cpp:96] Setting up conv4
I1217 13:06:52.109009 1990406912 net.cpp:103] Top shape: 200 64 6 6 (460800)
I1217 13:06:52.109032 1990406912 layer_factory.hpp:78] Creating layer pool5
I1217 13:06:52.109040 1990406912 net.cpp:67] Creating Layer pool5
I1217 13:06:52.109042 1990406912 net.cpp:394] pool5 <- conv4
I1217 13:06:52.109063 1990406912 net.cpp:356] pool5 -> pool5
I1217 13:06:52.109083 1990406912 net.cpp:96] Setting up pool5
I1217 13:06:52.109104 1990406912 net.cpp:103] Top shape: 200 64 3 3 (115200)
I1217 13:06:52.109109 1990406912 layer_factory.hpp:78] Creating layer conv6
I1217 13:06:52.109146 1990406912 net.cpp:67] Creating Layer conv6
I1217 13:06:52.109154 1990406912 net.cpp:394] conv6 <- pool5
I1217 13:06:52.109164 1990406912 net.cpp:356] conv6 -> conv6
I1217 13:06:52.109174 1990406912 net.cpp:96] Setting up conv6
I1217 13:06:52.109632 1990406912 net.cpp:103] Top shape: 200 120 1 1 (24000)
I1217 13:06:52.109644 1990406912 layer_factory.hpp:78] Creating layer ip1
I1217 13:06:52.109684 1990406912 net.cpp:67] Creating Layer ip1
I1217 13:06:52.109700 1990406912 net.cpp:394] ip1 <- conv6
I1217 13:06:52.109712 1990406912 net.cpp:356] ip1 -> ip1
I1217 13:06:52.109724 1990406912 net.cpp:96] Setting up ip1
I1217 13:06:52.109844 1990406912 net.cpp:103] Top shape: 200 100 1 1 (20000)
I1217 13:06:52.109863 1990406912 layer_factory.hpp:78] Creating layer relu1
I1217 13:06:52.109877 1990406912 net.cpp:67] Creating Layer relu1
I1217 13:06:52.109884 1990406912 net.cpp:394] relu1 <- ip1
I1217 13:06:52.109889 1990406912 net.cpp:345] relu1 -> ip1 (in-place)
I1217 13:06:52.109894 1990406912 net.cpp:96] Setting up relu1
I1217 13:06:52.109910 1990406912 net.cpp:103] Top shape: 200 100 1 1 (20000)
I1217 13:06:52.109928 1990406912 layer_factory.hpp:78] Creating layer ip1_relu1_0_split
I1217 13:06:52.109941 1990406912 net.cpp:67] Creating Layer ip1_relu1_0_split
I1217 13:06:52.109948 1990406912 net.cpp:394] ip1_relu1_0_split <- ip1
I1217 13:06:52.109961 1990406912 net.cpp:356] ip1_relu1_0_split -> ip1_relu1_0_split_0
I1217 13:06:52.109969 1990406912 net.cpp:356] ip1_relu1_0_split -> ip1_relu1_0_split_1
I1217 13:06:52.110003 1990406912 net.cpp:96] Setting up ip1_relu1_0_split
I1217 13:06:52.110018 1990406912 net.cpp:103] Top shape: 200 100 1 1 (20000)
I1217 13:06:52.110024 1990406912 net.cpp:103] Top shape: 200 100 1 1 (20000)
I1217 13:06:52.110033 1990406912 layer_factory.hpp:78] Creating layer ip2
I1217 13:06:52.110041 1990406912 net.cpp:67] Creating Layer ip2
I1217 13:06:52.110047 1990406912 net.cpp:394] ip2 <- ip1_relu1_0_split_0
I1217 13:06:52.110057 1990406912 net.cpp:356] ip2 -> ip2
I1217 13:06:52.110069 1990406912 net.cpp:96] Setting up ip2
I1217 13:06:52.110088 1990406912 net.cpp:103] Top shape: 200 10 1 1 (2000)
I1217 13:06:52.110100 1990406912 layer_factory.hpp:78] Creating layer ip3
I1217 13:06:52.110110 1990406912 net.cpp:67] Creating Layer ip3
I1217 13:06:52.110116 1990406912 net.cpp:394] ip3 <- ip1_relu1_0_split_1
I1217 13:06:52.110126 1990406912 net.cpp:356] ip3 -> ip3
I1217 13:06:52.110133 1990406912 net.cpp:96] Setting up ip3
I1217 13:06:52.110152 1990406912 net.cpp:103] Top shape: 200 3 1 1 (600)
I1217 13:06:52.110168 1990406912 layer_factory.hpp:78] Creating layer loss_pose_
I1217 13:06:52.110182 1990406912 net.cpp:67] Creating Layer loss_pose_
I1217 13:06:52.110188 1990406912 net.cpp:394] loss_pose_ <- ip3
I1217 13:06:52.110195 1990406912 net.cpp:394] loss_pose_ <- pose
I1217 13:06:52.110204 1990406912 net.cpp:356] loss_pose_ -> loss_pose
I1217 13:06:52.110215 1990406912 net.cpp:96] Setting up loss_pose_
I1217 13:06:52.110220 1990406912 net.cpp:103] Top shape: 1 1 1 1 (1)
I1217 13:06:52.110224 1990406912 net.cpp:109]     with loss weight 1
I1217 13:06:52.110251 1990406912 layer_factory.hpp:78] Creating layer loss_pose_loss_pose__0_split
I1217 13:06:52.110262 1990406912 net.cpp:67] Creating Layer loss_pose_loss_pose__0_split
I1217 13:06:52.110268 1990406912 net.cpp:394] loss_pose_loss_pose__0_split <- loss_pose
I1217 13:06:52.110277 1990406912 net.cpp:356] loss_pose_loss_pose__0_split -> loss_pose_loss_pose__0_split_0
I1217 13:06:52.110290 1990406912 net.cpp:356] loss_pose_loss_pose__0_split -> loss_pose_loss_pose__0_split_1
I1217 13:06:52.110299 1990406912 net.cpp:96] Setting up loss_pose_loss_pose__0_split
I1217 13:06:52.110307 1990406912 net.cpp:103] Top shape: 1 1 1 1 (1)
I1217 13:06:52.110311 1990406912 net.cpp:109]     with loss weight 0.8
I1217 13:06:52.110332 1990406912 net.cpp:103] Top shape: 1 1 1 1 (1)
I1217 13:06:52.110340 1990406912 layer_factory.hpp:78] Creating layer loss_landmark_
I1217 13:06:52.110352 1990406912 net.cpp:67] Creating Layer loss_landmark_
I1217 13:06:52.110373 1990406912 net.cpp:394] loss_landmark_ <- ip2
I1217 13:06:52.110381 1990406912 net.cpp:394] loss_landmark_ <- landmark
I1217 13:06:52.110391 1990406912 net.cpp:356] loss_landmark_ -> loss_landmark
I1217 13:06:52.110400 1990406912 net.cpp:96] Setting up loss_landmark_
I1217 13:06:52.110409 1990406912 net.cpp:103] Top shape: 1 1 1 1 (1)
I1217 13:06:52.110414 1990406912 net.cpp:109]     with loss weight 1
I1217 13:06:52.110424 1990406912 layer_factory.hpp:78] Creating layer ES
I1217 13:06:52.110435 1990406912 net.cpp:67] Creating Layer ES
I1217 13:06:52.110441 1990406912 net.cpp:394] ES <- loss_pose_loss_pose__0_split_1
I1217 13:06:52.110453 1990406912 net.cpp:356] ES -> ESLayer
I1217 13:06:52.110461 1990406912 net.cpp:96] Setting up ES
I1217 13:06:52.110469 1990406912 net.cpp:103] Top shape: 1 1 1 1 (1)
I1217 13:06:52.110476 1990406912 net.cpp:172] ES does not need backward computation.
I1217 13:06:52.110481 1990406912 net.cpp:170] loss_landmark_ needs backward computation.
I1217 13:06:52.110499 1990406912 net.cpp:170] loss_pose_loss_pose__0_split needs backward computation.
I1217 13:06:52.110510 1990406912 net.cpp:170] loss_pose_ needs backward computation.
I1217 13:06:52.110517 1990406912 net.cpp:170] ip3 needs backward computation.
…
