…
I1229 12:01:08.709136 1992884992 solver.cpp:67] Creating training net from net file: /Users/JamesGuo/Documents/MasterThesis/landmark/multilabellandmark_train_val.prototxt
I1229 12:01:08.710101 1992884992 net.cpp:275] The NetState phase (0) differed from the phase (1) specified by a rule in layer data1
I1229 12:01:08.710150 1992884992 net.cpp:39] Initializing net from parameters: 
name: "MultiLabelDetector"
layers {
  top: "data"
  top: "label"
  name: "data1"
  type: HDF5_DATA
  hdf5_data_param {
    source: "/Users/JamesGuo/Documents/MasterThesis/landmark/caffe/multilabellandmark_data_train_list.txt"
    batch_size: 200
  }
  include {
    phase: TRAIN
  }
  transform_param {
    scale: 0.00390625
  }
}
layers {
  bottom: "label"
  top: "pose"
  top: "landmark"
  name: "slice0"
  type: SLICE
  slice_param {
    slice_dim: 1
    slice_point: 3
  }
}
layers {
  bottom: "data"
  top: "conv0"
  name: "conv0"
  type: CONVOLUTION
  blobs_lr: 1
  blobs_lr: 2
  convolution_param {
    num_output: 16
    kernel_size: 5
    stride: 1
    weight_filler {
      type: "xavier"
    }
    bias_filler {
      type: "constant"
    }
  }
}
layers {
  bottom: "conv0"
  top: "pool1"
  name: "pool1"
  type: POOLING
  pooling_param {
    pool: MAX
    kernel_size: 2
    stride: 2
  }
}
layers {
  bottom: "pool1"
  top: "conv2"
  name: "conv2"
  type: CONVOLUTION
  blobs_lr: 1
  blobs_lr: 2
  convolution_param {
    num_output: 48
    kernel_size: 3
    stride: 1
    weight_filler {
      type: "xavier"
    }
    bias_filler {
      type: "constant"
    }
  }
}
layers {
  bottom: "conv2"
  top: "pool3"
  name: "pool3"
  type: POOLING
  pooling_param {
    pool: MAX
    kernel_size: 2
    stride: 2
  }
}
layers {
  bottom: "pool3"
  top: "conv4"
  name: "conv4"
  type: CONVOLUTION
  blobs_lr: 1
  blobs_lr: 2
  convolution_param {
    num_output: 64
    kernel_size: 3
    stride: 1
    weight_filler {
      type: "xavier"
    }
    bias_filler {
      type: "constant"
    }
  }
}
layers {
  bottom: "conv4"
  top: "pool5"
  name: "pool5"
  type: POOLING
  pooling_param {
    pool: MAX
    kernel_size: 2
    stride: 2
  }
}
layers {
  bottom: "pool5"
  top: "conv6"
  name: "conv6"
  type: CONVOLUTION
  blobs_lr: 1
  blobs_lr: 2
  convolution_param {
    num_output: 120
    kernel_size: 3
    stride: 1
    weight_filler {
      type: "xavier"
    }
    bias_filler {
      type: "constant"
    }
  }
}
layers {
  bottom: "conv6"
  top: "ip1"
  name: "ip1"
  type: INNER_PRODUCT
  blobs_lr: 1
  blobs_lr: 2
  inner_product_param {
    num_output: 100
    weight_filler {
      type: "xavier"
    }
    bias_filler {
      type: "constant"
    }
  }
}
layers {
  bottom: "ip1"
  top: "ip1"
  name: "relu1"
  type: RELU
}
layers {
  bottom: "ip1"
  top: "ip2"
  name: "ip2"
  type: INNER_PRODUCT
  blobs_lr: 1
  blobs_lr: 2
  weight_decay: 1
  weight_decay: 0
  inner_product_param {
    num_output: 10
    weight_filler {
      type: "xavier"
    }
    bias_filler {
      type: "constant"
    }
  }
}
layers {
  bottom: "ip1"
  top: "ip3"
  name: "ip3"
  type: INNER_PRODUCT
  blobs_lr: 1
  blobs_lr: 2
  weight_decay: 1
  weight_decay: 0
  inner_product_param {
    num_output: 3
    weight_filler {
      type: "xavier"
    }
    bias_filler {
      type: "constant"
    }
  }
}
layers {
  bottom: "ip3"
  bottom: "pose"
  top: "loss_pose"
  name: "loss_pose_"
  type: EUCLIDEAN_LOSS
  loss_weight: 0.8
}
layers {
  bottom: "ip2"
  bottom: "landmark"
  top: "loss_landmark"
  name: "loss_landmark_"
  type: EUCLIDEAN_LOSS
  loss_weight: 1
}
layers {
  bottom: "loss_pose"
  top: "ESLayer"
  name: "ES"
  type: EARLYSTOP
  earlystop_param {
    threshold: 0.1
    lamina: 0.8
    time_interval: 5
    path_tmp: "/Users/JamesGuo/Documents/MasterThesis/tmp.bin"
    iter_test: 138
    iter_train: 414
  }
}
state {
  phase: TRAIN
}
I1229 12:01:08.710765 1992884992 layer_factory.hpp:78] Creating layer data1
I1229 12:01:08.710806 1992884992 net.cpp:67] Creating Layer data1
I1229 12:01:08.710826 1992884992 net.cpp:356] data1 -> data
I1229 12:01:08.710855 1992884992 net.cpp:356] data1 -> label
I1229 12:01:08.710868 1992884992 net.cpp:96] Setting up data1
I1229 12:01:08.710880 1992884992 hdf5_data_layer.cpp:63] Loading list of HDF5 filenames from: /Users/JamesGuo/Documents/MasterThesis/landmark/caffe/multilabellandmark_data_train_list.txt
I1229 12:01:08.710950 1992884992 hdf5_data_layer.cpp:77] Number of HDF5 files: 1
I1229 12:01:09.006795 1992884992 net.cpp:103] Top shape: 200 1 40 40 (320000)
I1229 12:01:09.006820 1992884992 net.cpp:103] Top shape: 200 13 1 1 (2600)
I1229 12:01:09.006825 1992884992 layer_factory.hpp:78] Creating layer slice0
I1229 12:01:09.006840 1992884992 net.cpp:67] Creating Layer slice0
I1229 12:01:09.006845 1992884992 net.cpp:394] slice0 <- label
I1229 12:01:09.006858 1992884992 net.cpp:356] slice0 -> pose
I1229 12:01:09.006868 1992884992 net.cpp:356] slice0 -> landmark
I1229 12:01:09.006875 1992884992 net.cpp:96] Setting up slice0
I1229 12:01:09.006883 1992884992 net.cpp:103] Top shape: 200 3 1 1 (600)
I1229 12:01:09.006891 1992884992 net.cpp:103] Top shape: 200 10 1 1 (2000)
I1229 12:01:09.006896 1992884992 layer_factory.hpp:78] Creating layer conv0
I1229 12:01:09.006906 1992884992 net.cpp:67] Creating Layer conv0
I1229 12:01:09.006913 1992884992 net.cpp:394] conv0 <- data
I1229 12:01:09.006923 1992884992 net.cpp:356] conv0 -> conv0
I1229 12:01:09.006940 1992884992 net.cpp:96] Setting up conv0
I1229 12:01:09.011276 1992884992 net.cpp:103] Top shape: 200 16 36 36 (4147200)
I1229 12:01:09.011302 1992884992 layer_factory.hpp:78] Creating layer pool1
I1229 12:01:09.011309 1992884992 net.cpp:67] Creating Layer pool1
I1229 12:01:09.011337 1992884992 net.cpp:394] pool1 <- conv0
I1229 12:01:09.011350 1992884992 net.cpp:356] pool1 -> pool1
I1229 12:01:09.011363 1992884992 net.cpp:96] Setting up pool1
I1229 12:01:09.011379 1992884992 net.cpp:103] Top shape: 200 16 18 18 (1036800)
I1229 12:01:09.011382 1992884992 layer_factory.hpp:78] Creating layer conv2
I1229 12:01:09.011389 1992884992 net.cpp:67] Creating Layer conv2
I1229 12:01:09.011394 1992884992 net.cpp:394] conv2 <- pool1
I1229 12:01:09.011401 1992884992 net.cpp:356] conv2 -> conv2
I1229 12:01:09.011411 1992884992 net.cpp:96] Setting up conv2
I1229 12:01:09.011477 1992884992 net.cpp:103] Top shape: 200 48 16 16 (2457600)
I1229 12:01:09.011492 1992884992 layer_factory.hpp:78] Creating layer pool3
I1229 12:01:09.011502 1992884992 net.cpp:67] Creating Layer pool3
I1229 12:01:09.011510 1992884992 net.cpp:394] pool3 <- conv2
I1229 12:01:09.011519 1992884992 net.cpp:356] pool3 -> pool3
I1229 12:01:09.011528 1992884992 net.cpp:96] Setting up pool3
I1229 12:01:09.011533 1992884992 net.cpp:103] Top shape: 200 48 8 8 (614400)
I1229 12:01:09.011535 1992884992 layer_factory.hpp:78] Creating layer conv4
I1229 12:01:09.011554 1992884992 net.cpp:67] Creating Layer conv4
I1229 12:01:09.011572 1992884992 net.cpp:394] conv4 <- pool3
I1229 12:01:09.011586 1992884992 net.cpp:356] conv4 -> conv4
I1229 12:01:09.011600 1992884992 net.cpp:96] Setting up conv4
I1229 12:01:09.011831 1992884992 net.cpp:103] Top shape: 200 64 6 6 (460800)
I1229 12:01:09.011852 1992884992 layer_factory.hpp:78] Creating layer pool5
I1229 12:01:09.011857 1992884992 net.cpp:67] Creating Layer pool5
I1229 12:01:09.011862 1992884992 net.cpp:394] pool5 <- conv4
I1229 12:01:09.011870 1992884992 net.cpp:356] pool5 -> pool5
I1229 12:01:09.011883 1992884992 net.cpp:96] Setting up pool5
I1229 12:01:09.011890 1992884992 net.cpp:103] Top shape: 200 64 3 3 (115200)
I1229 12:01:09.011896 1992884992 layer_factory.hpp:78] Creating layer conv6
I1229 12:01:09.011943 1992884992 net.cpp:67] Creating Layer conv6
I1229 12:01:09.011951 1992884992 net.cpp:394] conv6 <- pool5
I1229 12:01:09.011960 1992884992 net.cpp:356] conv6 -> conv6
I1229 12:01:09.011971 1992884992 net.cpp:96] Setting up conv6
I1229 12:01:09.012377 1992884992 net.cpp:103] Top shape: 200 120 1 1 (24000)
I1229 12:01:09.012398 1992884992 layer_factory.hpp:78] Creating layer ip1
I1229 12:01:09.012405 1992884992 net.cpp:67] Creating Layer ip1
I1229 12:01:09.012408 1992884992 net.cpp:394] ip1 <- conv6
I1229 12:01:09.012413 1992884992 net.cpp:356] ip1 -> ip1
I1229 12:01:09.012420 1992884992 net.cpp:96] Setting up ip1
I1229 12:01:09.012517 1992884992 net.cpp:103] Top shape: 200 100 1 1 (20000)
I1229 12:01:09.012533 1992884992 layer_factory.hpp:78] Creating layer relu1
I1229 12:01:09.012549 1992884992 net.cpp:67] Creating Layer relu1
I1229 12:01:09.012552 1992884992 net.cpp:394] relu1 <- ip1
I1229 12:01:09.012558 1992884992 net.cpp:345] relu1 -> ip1 (in-place)
I1229 12:01:09.012564 1992884992 net.cpp:96] Setting up relu1
I1229 12:01:09.012567 1992884992 net.cpp:103] Top shape: 200 100 1 1 (20000)
I1229 12:01:09.012570 1992884992 layer_factory.hpp:78] Creating layer ip1_relu1_0_split
I1229 12:01:09.012575 1992884992 net.cpp:67] Creating Layer ip1_relu1_0_split
I1229 12:01:09.012578 1992884992 net.cpp:394] ip1_relu1_0_split <- ip1
I1229 12:01:09.012583 1992884992 net.cpp:356] ip1_relu1_0_split -> ip1_relu1_0_split_0
I1229 12:01:09.012588 1992884992 net.cpp:356] ip1_relu1_0_split -> ip1_relu1_0_split_1
I1229 12:01:09.012593 1992884992 net.cpp:96] Setting up ip1_relu1_0_split
I1229 12:01:09.012598 1992884992 net.cpp:103] Top shape: 200 100 1 1 (20000)
I1229 12:01:09.012601 1992884992 net.cpp:103] Top shape: 200 100 1 1 (20000)
I1229 12:01:09.012604 1992884992 layer_factory.hpp:78] Creating layer ip2
I1229 12:01:09.012621 1992884992 net.cpp:67] Creating Layer ip2
I1229 12:01:09.012645 1992884992 net.cpp:394] ip2 <- ip1_relu1_0_split_0
I1229 12:01:09.012660 1992884992 net.cpp:356] ip2 -> ip2
I1229 12:01:09.012673 1992884992 net.cpp:96] Setting up ip2
I1229 12:01:09.012696 1992884992 net.cpp:103] Top shape: 200 10 1 1 (2000)
I1229 12:01:09.012706 1992884992 layer_factory.hpp:78] Creating layer ip3
I1229 12:01:09.012713 1992884992 net.cpp:67] Creating Layer ip3
I1229 12:01:09.012720 1992884992 net.cpp:394] ip3 <- ip1_relu1_0_split_1
I1229 12:01:09.012728 1992884992 net.cpp:356] ip3 -> ip3
I1229 12:01:09.012739 1992884992 net.cpp:96] Setting up ip3
I1229 12:01:09.012755 1992884992 net.cpp:103] Top shape: 200 3 1 1 (600)
I1229 12:01:09.012765 1992884992 layer_factory.hpp:78] Creating layer loss_pose_
I1229 12:01:09.012778 1992884992 net.cpp:67] Creating Layer loss_pose_
I1229 12:01:09.012784 1992884992 net.cpp:394] loss_pose_ <- ip3
I1229 12:01:09.012791 1992884992 net.cpp:394] loss_pose_ <- pose
I1229 12:01:09.012799 1992884992 net.cpp:356] loss_pose_ -> loss_pose
I1229 12:01:09.012806 1992884992 net.cpp:96] Setting up loss_pose_
I1229 12:01:09.012810 1992884992 net.cpp:103] Top shape: 1 1 1 1 (1)
I1229 12:01:09.012816 1992884992 net.cpp:109]     with loss weight 1
I1229 12:01:09.012831 1992884992 layer_factory.hpp:78] Creating layer loss_pose_loss_pose__0_split
I1229 12:01:09.012840 1992884992 net.cpp:67] Creating Layer loss_pose_loss_pose__0_split
I1229 12:01:09.012846 1992884992 net.cpp:394] loss_pose_loss_pose__0_split <- loss_pose
I1229 12:01:09.012855 1992884992 net.cpp:356] loss_pose_loss_pose__0_split -> loss_pose_loss_pose__0_split_0
I1229 12:01:09.012866 1992884992 net.cpp:356] loss_pose_loss_pose__0_split -> loss_pose_loss_pose__0_split_1
I1229 12:01:09.012876 1992884992 net.cpp:96] Setting up loss_pose_loss_pose__0_split
I1229 12:01:09.012882 1992884992 net.cpp:103] Top shape: 1 1 1 1 (1)
I1229 12:01:09.012887 1992884992 net.cpp:109]     with loss weight 0.8
I1229 12:01:09.012891 1992884992 net.cpp:103] Top shape: 1 1 1 1 (1)
I1229 12:01:09.012893 1992884992 layer_factory.hpp:78] Creating layer loss_landmark_
I1229 12:01:09.012915 1992884992 net.cpp:67] Creating Layer loss_landmark_
I1229 12:01:09.012936 1992884992 net.cpp:394] loss_landmark_ <- ip2
I1229 12:01:09.012944 1992884992 net.cpp:394] loss_landmark_ <- landmark
I1229 12:01:09.012954 1992884992 net.cpp:356] loss_landmark_ -> loss_landmark
I1229 12:01:09.012966 1992884992 net.cpp:96] Setting up loss_landmark_
I1229 12:01:09.012975 1992884992 net.cpp:103] Top shape: 1 1 1 1 (1)
I1229 12:01:09.012982 1992884992 net.cpp:109]     with loss weight 1
I1229 12:01:09.012990 1992884992 layer_factory.hpp:78] Creating layer ES
I1229 12:01:09.013002 1992884992 net.cpp:67] Creating Layer ES
I1229 12:01:09.013006 1992884992 net.cpp:394] ES <- loss_pose_loss_pose__0_split_1
I1229 12:01:09.013021 1992884992 net.cpp:356] ES -> ESLayer
I1229 12:01:09.013046 1992884992 net.cpp:96] Setting up ES
I1229 12:01:09.013058 1992884992 net.cpp:103] Top shape: 1 1 1 1 (1)
I1229 12:01:09.013066 1992884992 net.cpp:172] ES does not need backward computation.
I1229 12:01:09.013072 1992884992 net.cpp:170] loss_landmark_ needs backward computation.
I1229 12:01:09.013077 1992884992 net.cpp:170] loss_pose_loss_pose__0_split needs backward computation.
I1229 12:01:09.013082 1992884992 net.cpp:170] loss_pose_ needs backward computation.
I1229 12:01:09.013088 1992884992 net.cpp:170] ip3 needs backward computation.
…
