…
I1223 11:51:56.981109 2009993984 solver.cpp:67] Creating training net from net file: /Users/JamesGuo/Documents/MasterThesis/landmark/landmark_train_val.prototxt
I1223 11:51:56.982120 2009993984 net.cpp:275] The NetState phase (0) differed from the phase (1) specified by a rule in layer data1
I1223 11:51:56.982156 2009993984 net.cpp:39] Initializing net from parameters: 
name: "LandmarkDetector"
layers {
  top: "data"
  top: "label"
  name: "data1"
  type: HDF5_DATA
  hdf5_data_param {
    source: "/Users/JamesGuo/Documents/MasterThesis/landmark/caffe/facelandmark_data_train_list.txt"
    batch_size: 200
  }
  include {
    phase: TRAIN
  }
  transform_param {
    scale: 0.00390625
  }
}
layers {
  bottom: "data"
  top: "conv0"
  name: "conv0"
  type: CONVOLUTION
  blobs_lr: 1
  blobs_lr: 2
  convolution_param {
    num_output: 16
    kernel_size: 5
    stride: 1
    weight_filler {
      type: "xavier"
    }
    bias_filler {
      type: "constant"
    }
  }
}
layers {
  bottom: "conv0"
  top: "pool1"
  name: "pool1"
  type: POOLING
  pooling_param {
    pool: MAX
    kernel_size: 2
    stride: 2
  }
}
layers {
  bottom: "pool1"
  top: "conv2"
  name: "conv2"
  type: CONVOLUTION
  blobs_lr: 1
  blobs_lr: 2
  convolution_param {
    num_output: 48
    kernel_size: 3
    stride: 1
    weight_filler {
      type: "xavier"
    }
    bias_filler {
      type: "constant"
    }
  }
}
layers {
  bottom: "conv2"
  top: "pool3"
  name: "pool3"
  type: POOLING
  pooling_param {
    pool: MAX
    kernel_size: 2
    stride: 2
  }
}
layers {
  bottom: "pool3"
  top: "conv4"
  name: "conv4"
  type: CONVOLUTION
  blobs_lr: 1
  blobs_lr: 2
  convolution_param {
    num_output: 64
    kernel_size: 3
    stride: 1
    weight_filler {
      type: "xavier"
    }
    bias_filler {
      type: "constant"
    }
  }
}
layers {
  bottom: "conv4"
  top: "pool5"
  name: "pool5"
  type: POOLING
  pooling_param {
    pool: MAX
    kernel_size: 2
    stride: 2
  }
}
layers {
  bottom: "pool5"
  top: "conv6"
  name: "conv6"
  type: CONVOLUTION
  blobs_lr: 1
  blobs_lr: 2
  convolution_param {
    num_output: 120
    kernel_size: 3
    stride: 1
    weight_filler {
      type: "xavier"
    }
    bias_filler {
      type: "constant"
    }
  }
}
layers {
  bottom: "conv6"
  top: "ip1"
  name: "ip1"
  type: INNER_PRODUCT
  blobs_lr: 1
  blobs_lr: 2
  inner_product_param {
    num_output: 100
    weight_filler {
      type: "xavier"
    }
    bias_filler {
      type: "constant"
    }
  }
}
layers {
  bottom: "ip1"
  top: "ip1"
  name: "relu1"
  type: RELU
}
layers {
  bottom: "ip1"
  top: "ip2"
  name: "ip2"
  type: INNER_PRODUCT
  blobs_lr: 1
  blobs_lr: 2
  weight_decay: 1
  weight_decay: 0
  inner_product_param {
    num_output: 10
    weight_filler {
      type: "xavier"
    }
    bias_filler {
      type: "constant"
    }
  }
}
layers {
  bottom: "ip2"
  bottom: "label"
  top: "loss"
  name: "loss"
  type: EUCLIDEAN_LOSS
}
state {
  phase: TRAIN
}
I1223 11:51:56.982535 2009993984 layer_factory.hpp:78] Creating layer data1
I1223 11:51:56.982558 2009993984 net.cpp:67] Creating Layer data1
I1223 11:51:56.982569 2009993984 net.cpp:356] data1 -> data
I1223 11:51:56.982594 2009993984 net.cpp:356] data1 -> label
I1223 11:51:56.982605 2009993984 net.cpp:96] Setting up data1
I1223 11:51:56.982612 2009993984 hdf5_data_layer.cpp:63] Loading list of HDF5 filenames from: /Users/JamesGuo/Documents/MasterThesis/landmark/caffe/facelandmark_data_train_list.txt
I1223 11:51:56.982939 2009993984 hdf5_data_layer.cpp:77] Number of HDF5 files: 1
I1223 11:51:57.883548 2009993984 net.cpp:103] Top shape: 200 1 40 40 (320000)
I1223 11:51:57.883569 2009993984 net.cpp:103] Top shape: 200 10 1 1 (2000)
I1223 11:51:57.883577 2009993984 layer_factory.hpp:78] Creating layer conv0
I1223 11:51:57.883589 2009993984 net.cpp:67] Creating Layer conv0
I1223 11:51:57.883605 2009993984 net.cpp:394] conv0 <- data
I1223 11:51:57.883630 2009993984 net.cpp:356] conv0 -> conv0
I1223 11:51:57.883647 2009993984 net.cpp:96] Setting up conv0
I1223 11:51:57.888059 2009993984 net.cpp:103] Top shape: 200 16 36 36 (4147200)
I1223 11:51:57.888082 2009993984 layer_factory.hpp:78] Creating layer pool1
I1223 11:51:57.888095 2009993984 net.cpp:67] Creating Layer pool1
I1223 11:51:57.888102 2009993984 net.cpp:394] pool1 <- conv0
I1223 11:51:57.888110 2009993984 net.cpp:356] pool1 -> pool1
I1223 11:51:57.888119 2009993984 net.cpp:96] Setting up pool1
I1223 11:51:57.888134 2009993984 net.cpp:103] Top shape: 200 16 18 18 (1036800)
I1223 11:51:57.888139 2009993984 layer_factory.hpp:78] Creating layer conv2
I1223 11:51:57.888147 2009993984 net.cpp:67] Creating Layer conv2
I1223 11:51:57.888154 2009993984 net.cpp:394] conv2 <- pool1
I1223 11:51:57.888165 2009993984 net.cpp:356] conv2 -> conv2
I1223 11:51:57.888178 2009993984 net.cpp:96] Setting up conv2
I1223 11:51:57.888247 2009993984 net.cpp:103] Top shape: 200 48 16 16 (2457600)
I1223 11:51:57.888260 2009993984 layer_factory.hpp:78] Creating layer pool3
I1223 11:51:57.888269 2009993984 net.cpp:67] Creating Layer pool3
I1223 11:51:57.888277 2009993984 net.cpp:394] pool3 <- conv2
I1223 11:51:57.888284 2009993984 net.cpp:356] pool3 -> pool3
I1223 11:51:57.888294 2009993984 net.cpp:96] Setting up pool3
I1223 11:51:57.888301 2009993984 net.cpp:103] Top shape: 200 48 8 8 (614400)
I1223 11:51:57.888306 2009993984 layer_factory.hpp:78] Creating layer conv4
I1223 11:51:57.888314 2009993984 net.cpp:67] Creating Layer conv4
I1223 11:51:57.888320 2009993984 net.cpp:394] conv4 <- pool3
I1223 11:51:57.888345 2009993984 net.cpp:356] conv4 -> conv4
I1223 11:51:57.888358 2009993984 net.cpp:96] Setting up conv4
I1223 11:51:57.888595 2009993984 net.cpp:103] Top shape: 200 64 6 6 (460800)
I1223 11:51:57.888608 2009993984 layer_factory.hpp:78] Creating layer pool5
I1223 11:51:57.888617 2009993984 net.cpp:67] Creating Layer pool5
I1223 11:51:57.888623 2009993984 net.cpp:394] pool5 <- conv4
I1223 11:51:57.888630 2009993984 net.cpp:356] pool5 -> pool5
I1223 11:51:57.888639 2009993984 net.cpp:96] Setting up pool5
I1223 11:51:57.888648 2009993984 net.cpp:103] Top shape: 200 64 3 3 (115200)
I1223 11:51:57.888653 2009993984 layer_factory.hpp:78] Creating layer conv6
I1223 11:51:57.888661 2009993984 net.cpp:67] Creating Layer conv6
I1223 11:51:57.888666 2009993984 net.cpp:394] conv6 <- pool5
I1223 11:51:57.888675 2009993984 net.cpp:356] conv6 -> conv6
I1223 11:51:57.888687 2009993984 net.cpp:96] Setting up conv6
I1223 11:51:57.889097 2009993984 net.cpp:103] Top shape: 200 120 1 1 (24000)
I1223 11:51:57.889107 2009993984 layer_factory.hpp:78] Creating layer ip1
I1223 11:51:57.889122 2009993984 net.cpp:67] Creating Layer ip1
I1223 11:51:57.889129 2009993984 net.cpp:394] ip1 <- conv6
I1223 11:51:57.889137 2009993984 net.cpp:356] ip1 -> ip1
I1223 11:51:57.889148 2009993984 net.cpp:96] Setting up ip1
I1223 11:51:57.889263 2009993984 net.cpp:103] Top shape: 200 100 1 1 (20000)
I1223 11:51:57.889276 2009993984 layer_factory.hpp:78] Creating layer relu1
I1223 11:51:57.889286 2009993984 net.cpp:67] Creating Layer relu1
I1223 11:51:57.889292 2009993984 net.cpp:394] relu1 <- ip1
I1223 11:51:57.889300 2009993984 net.cpp:345] relu1 -> ip1 (in-place)
I1223 11:51:57.889308 2009993984 net.cpp:96] Setting up relu1
I1223 11:51:57.889315 2009993984 net.cpp:103] Top shape: 200 100 1 1 (20000)
I1223 11:51:57.889320 2009993984 layer_factory.hpp:78] Creating layer ip2
I1223 11:51:57.889328 2009993984 net.cpp:67] Creating Layer ip2
I1223 11:51:57.889334 2009993984 net.cpp:394] ip2 <- ip1
I1223 11:51:57.889343 2009993984 net.cpp:356] ip2 -> ip2
I1223 11:51:57.889353 2009993984 net.cpp:96] Setting up ip2
I1223 11:51:57.889410 2009993984 net.cpp:103] Top shape: 200 10 1 1 (2000)
I1223 11:51:57.889428 2009993984 layer_factory.hpp:78] Creating layer loss
I1223 11:51:57.889441 2009993984 net.cpp:67] Creating Layer loss
I1223 11:51:57.889447 2009993984 net.cpp:394] loss <- ip2
I1223 11:51:57.889454 2009993984 net.cpp:394] loss <- label
I1223 11:51:57.889463 2009993984 net.cpp:356] loss -> loss
I1223 11:51:57.889473 2009993984 net.cpp:96] Setting up loss
I1223 11:51:57.889482 2009993984 net.cpp:103] Top shape: 1 1 1 1 (1)
I1223 11:51:57.889492 2009993984 net.cpp:109]     with loss weight 1
I1223 11:51:57.889508 2009993984 net.cpp:170] loss needs backward computation.
I1223 11:51:57.889513 2009993984 net.cpp:170] ip2 needs backward computation.
I1223 11:51:57.889518 2009993984 net.cpp:170] relu1 needs backward computation.
I1223 11:51:57.889523 2009993984 net.cpp:170] ip1 needs backward computation.
I1223 11:51:57.889528 2009993984 net.cpp:170] conv6 needs backward computation.
…
