…
I1222 17:53:59.632549 2009993984 solver.cpp:67] Creating training net from net file: /Users/JamesGuo/Documents/MasterThesis/landmark/multilabellandmark_train_val.prototxt
I1222 17:53:59.635015 2009993984 net.cpp:275] The NetState phase (0) differed from the phase (1) specified by a rule in layer data1
I1222 17:53:59.635046 2009993984 net.cpp:39] Initializing net from parameters: 
name: "MultiLabelDetector"
layers {
  top: "data"
  top: "label"
  name: "data1"
  type: HDF5_DATA
  hdf5_data_param {
    source: "/Users/JamesGuo/Documents/MasterThesis/landmark/caffe/multilabellandmark_data_train_list.txt"
    batch_size: 200
  }
  include {
    phase: TRAIN
  }
  transform_param {
    scale: 0.00390625
  }
}
layers {
  bottom: "label"
  top: "pose"
  top: "landmark"
  name: "slice0"
  type: SLICE
  slice_param {
    slice_dim: 1
    slice_point: 3
  }
}
layers {
  bottom: "data"
  top: "conv0"
  name: "conv0"
  type: CONVOLUTION
  blobs_lr: 1
  blobs_lr: 2
  convolution_param {
    num_output: 16
    kernel_size: 5
    stride: 1
    weight_filler {
      type: "xavier"
    }
    bias_filler {
      type: "constant"
    }
  }
}
layers {
  bottom: "conv0"
  top: "pool1"
  name: "pool1"
  type: POOLING
  pooling_param {
    pool: MAX
    kernel_size: 2
    stride: 2
  }
}
layers {
  bottom: "pool1"
  top: "conv2"
  name: "conv2"
  type: CONVOLUTION
  blobs_lr: 1
  blobs_lr: 2
  convolution_param {
    num_output: 48
    kernel_size: 3
    stride: 1
    weight_filler {
      type: "xavier"
    }
    bias_filler {
      type: "constant"
    }
  }
}
layers {
  bottom: "conv2"
  top: "pool3"
  name: "pool3"
  type: POOLING
  pooling_param {
    pool: MAX
    kernel_size: 2
    stride: 2
  }
}
layers {
  bottom: "pool3"
  top: "conv4"
  name: "conv4"
  type: CONVOLUTION
  blobs_lr: 1
  blobs_lr: 2
  convolution_param {
    num_output: 64
    kernel_size: 3
    stride: 1
    weight_filler {
      type: "xavier"
    }
    bias_filler {
      type: "constant"
    }
  }
}
layers {
  bottom: "conv4"
  top: "pool5"
  name: "pool5"
  type: POOLING
  pooling_param {
    pool: MAX
    kernel_size: 2
    stride: 2
  }
}
layers {
  bottom: "pool5"
  top: "conv6"
  name: "conv6"
  type: CONVOLUTION
  blobs_lr: 1
  blobs_lr: 2
  convolution_param {
    num_output: 120
    kernel_size: 3
    stride: 1
    weight_filler {
      type: "xavier"
    }
    bias_filler {
      type: "constant"
    }
  }
}
layers {
  bottom: "conv6"
  top: "ip1"
  name: "ip1"
  type: INNER_PRODUCT
  blobs_lr: 1
  blobs_lr: 2
  inner_product_param {
    num_output: 100
    weight_filler {
      type: "xavier"
    }
    bias_filler {
      type: "constant"
    }
  }
}
layers {
  bottom: "ip1"
  top: "ip1"
  name: "relu1"
  type: RELU
}
layers {
  bottom: "ip1"
  top: "ip2"
  name: "ip2"
  type: INNER_PRODUCT
  blobs_lr: 1
  blobs_lr: 2
  weight_decay: 1
  weight_decay: 0
  inner_product_param {
    num_output: 10
    weight_filler {
      type: "xavier"
    }
    bias_filler {
      type: "constant"
    }
  }
}
layers {
  bottom: "ip1"
  top: "ip3"
  name: "ip3"
  type: INNER_PRODUCT
  blobs_lr: 1
  blobs_lr: 2
  weight_decay: 1
  weight_decay: 0
  inner_product_param {
    num_output: 3
    weight_filler {
      type: "xavier"
    }
    bias_filler {
      type: "constant"
    }
  }
}
layers {
  bottom: "ip3"
  bottom: "pose"
  top: "loss_pose"
  name: "loss_pose_"
  type: EUCLIDEAN_LOSS
  loss_weight: 0.8
}
layers {
  bottom: "ip2"
  bottom: "landmark"
  top: "loss_landmark"
  name: "loss_landmark_"
  type: EUCLIDEAN_LOSS
  loss_weight: 1
}
layers {
  bottom: "loss_pose"
  top: "ESLayer"
  name: "ES"
  type: EARLYSTOP
  earlystop_param {
    threshold: 0.00048
    lamina: 0.8
    time_interval: 5
    path_tmp: "/Users/JamesGuo/Documents/MasterThesis/tmp.bin"
    iter_test: 138
    iter_train: 414
  }
}
state {
  phase: TRAIN
}
I1222 17:53:59.635414 2009993984 layer_factory.hpp:78] Creating layer data1
I1222 17:53:59.635432 2009993984 net.cpp:67] Creating Layer data1
I1222 17:53:59.635443 2009993984 net.cpp:356] data1 -> data
I1222 17:53:59.635467 2009993984 net.cpp:356] data1 -> label
I1222 17:53:59.635478 2009993984 net.cpp:96] Setting up data1
I1222 17:53:59.635484 2009993984 hdf5_data_layer.cpp:63] Loading list of HDF5 filenames from: /Users/JamesGuo/Documents/MasterThesis/landmark/caffe/multilabellandmark_data_train_list.txt
I1222 17:53:59.636096 2009993984 hdf5_data_layer.cpp:77] Number of HDF5 files: 1
I1222 17:54:00.508174 2009993984 net.cpp:103] Top shape: 200 1 40 40 (320000)
I1222 17:54:00.508198 2009993984 net.cpp:103] Top shape: 200 13 1 1 (2600)
I1222 17:54:00.508211 2009993984 layer_factory.hpp:78] Creating layer slice0
I1222 17:54:00.508226 2009993984 net.cpp:67] Creating Layer slice0
I1222 17:54:00.508232 2009993984 net.cpp:394] slice0 <- label
I1222 17:54:00.508246 2009993984 net.cpp:356] slice0 -> pose
I1222 17:54:00.508278 2009993984 net.cpp:356] slice0 -> landmark
I1222 17:54:00.508290 2009993984 net.cpp:96] Setting up slice0
I1222 17:54:00.508303 2009993984 net.cpp:103] Top shape: 200 3 1 1 (600)
I1222 17:54:00.508311 2009993984 net.cpp:103] Top shape: 200 10 1 1 (2000)
I1222 17:54:00.508316 2009993984 layer_factory.hpp:78] Creating layer conv0
I1222 17:54:00.508330 2009993984 net.cpp:67] Creating Layer conv0
I1222 17:54:00.508337 2009993984 net.cpp:394] conv0 <- data
I1222 17:54:00.508345 2009993984 net.cpp:356] conv0 -> conv0
I1222 17:54:00.508362 2009993984 net.cpp:96] Setting up conv0
I1222 17:54:00.512954 2009993984 net.cpp:103] Top shape: 200 16 36 36 (4147200)
I1222 17:54:00.512980 2009993984 layer_factory.hpp:78] Creating layer pool1
I1222 17:54:00.512992 2009993984 net.cpp:67] Creating Layer pool1
I1222 17:54:00.512997 2009993984 net.cpp:394] pool1 <- conv0
I1222 17:54:00.513008 2009993984 net.cpp:356] pool1 -> pool1
I1222 17:54:00.513015 2009993984 net.cpp:96] Setting up pool1
I1222 17:54:00.513025 2009993984 net.cpp:103] Top shape: 200 16 18 18 (1036800)
I1222 17:54:00.513028 2009993984 layer_factory.hpp:78] Creating layer conv2
I1222 17:54:00.513048 2009993984 net.cpp:67] Creating Layer conv2
I1222 17:54:00.513062 2009993984 net.cpp:394] conv2 <- pool1
I1222 17:54:00.513072 2009993984 net.cpp:356] conv2 -> conv2
I1222 17:54:00.513083 2009993984 net.cpp:96] Setting up conv2
I1222 17:54:00.513154 2009993984 net.cpp:103] Top shape: 200 48 16 16 (2457600)
I1222 17:54:00.513164 2009993984 layer_factory.hpp:78] Creating layer pool3
I1222 17:54:00.513176 2009993984 net.cpp:67] Creating Layer pool3
I1222 17:54:00.513183 2009993984 net.cpp:394] pool3 <- conv2
I1222 17:54:00.513191 2009993984 net.cpp:356] pool3 -> pool3
I1222 17:54:00.513201 2009993984 net.cpp:96] Setting up pool3
I1222 17:54:00.513211 2009993984 net.cpp:103] Top shape: 200 48 8 8 (614400)
I1222 17:54:00.513217 2009993984 layer_factory.hpp:78] Creating layer conv4
I1222 17:54:00.513222 2009993984 net.cpp:67] Creating Layer conv4
I1222 17:54:00.513226 2009993984 net.cpp:394] conv4 <- pool3
I1222 17:54:00.513252 2009993984 net.cpp:356] conv4 -> conv4
I1222 17:54:00.513268 2009993984 net.cpp:96] Setting up conv4
I1222 17:54:00.513520 2009993984 net.cpp:103] Top shape: 200 64 6 6 (460800)
I1222 17:54:00.513535 2009993984 layer_factory.hpp:78] Creating layer pool5
I1222 17:54:00.513559 2009993984 net.cpp:67] Creating Layer pool5
I1222 17:54:00.513566 2009993984 net.cpp:394] pool5 <- conv4
I1222 17:54:00.513574 2009993984 net.cpp:356] pool5 -> pool5
I1222 17:54:00.513584 2009993984 net.cpp:96] Setting up pool5
I1222 17:54:00.513592 2009993984 net.cpp:103] Top shape: 200 64 3 3 (115200)
I1222 17:54:00.513597 2009993984 layer_factory.hpp:78] Creating layer conv6
I1222 17:54:00.513628 2009993984 net.cpp:67] Creating Layer conv6
I1222 17:54:00.513635 2009993984 net.cpp:394] conv6 <- pool5
I1222 17:54:00.513644 2009993984 net.cpp:356] conv6 -> conv6
I1222 17:54:00.513656 2009993984 net.cpp:96] Setting up conv6
I1222 17:54:00.514192 2009993984 net.cpp:103] Top shape: 200 120 1 1 (24000)
I1222 17:54:00.514204 2009993984 layer_factory.hpp:78] Creating layer ip1
I1222 17:54:00.514214 2009993984 net.cpp:67] Creating Layer ip1
I1222 17:54:00.514219 2009993984 net.cpp:394] ip1 <- conv6
I1222 17:54:00.514225 2009993984 net.cpp:356] ip1 -> ip1
I1222 17:54:00.514235 2009993984 net.cpp:96] Setting up ip1
I1222 17:54:00.514364 2009993984 net.cpp:103] Top shape: 200 100 1 1 (20000)
I1222 17:54:00.514384 2009993984 layer_factory.hpp:78] Creating layer relu1
I1222 17:54:00.514410 2009993984 net.cpp:67] Creating Layer relu1
I1222 17:54:00.514430 2009993984 net.cpp:394] relu1 <- ip1
I1222 17:54:00.514446 2009993984 net.cpp:345] relu1 -> ip1 (in-place)
I1222 17:54:00.514457 2009993984 net.cpp:96] Setting up relu1
I1222 17:54:00.514464 2009993984 net.cpp:103] Top shape: 200 100 1 1 (20000)
I1222 17:54:00.514472 2009993984 layer_factory.hpp:78] Creating layer ip1_relu1_0_split
I1222 17:54:00.514480 2009993984 net.cpp:67] Creating Layer ip1_relu1_0_split
I1222 17:54:00.514487 2009993984 net.cpp:394] ip1_relu1_0_split <- ip1
I1222 17:54:00.514497 2009993984 net.cpp:356] ip1_relu1_0_split -> ip1_relu1_0_split_0
I1222 17:54:00.514509 2009993984 net.cpp:356] ip1_relu1_0_split -> ip1_relu1_0_split_1
I1222 17:54:00.514519 2009993984 net.cpp:96] Setting up ip1_relu1_0_split
I1222 17:54:00.514547 2009993984 net.cpp:103] Top shape: 200 100 1 1 (20000)
I1222 17:54:00.514557 2009993984 net.cpp:103] Top shape: 200 100 1 1 (20000)
I1222 17:54:00.514564 2009993984 layer_factory.hpp:78] Creating layer ip2
I1222 17:54:00.514575 2009993984 net.cpp:67] Creating Layer ip2
I1222 17:54:00.514581 2009993984 net.cpp:394] ip2 <- ip1_relu1_0_split_0
I1222 17:54:00.514590 2009993984 net.cpp:356] ip2 -> ip2
I1222 17:54:00.514602 2009993984 net.cpp:96] Setting up ip2
I1222 17:54:00.514621 2009993984 net.cpp:103] Top shape: 200 10 1 1 (2000)
I1222 17:54:00.514634 2009993984 layer_factory.hpp:78] Creating layer ip3
I1222 17:54:00.514647 2009993984 net.cpp:67] Creating Layer ip3
I1222 17:54:00.514652 2009993984 net.cpp:394] ip3 <- ip1_relu1_0_split_1
I1222 17:54:00.514662 2009993984 net.cpp:356] ip3 -> ip3
I1222 17:54:00.514669 2009993984 net.cpp:96] Setting up ip3
I1222 17:54:00.514679 2009993984 net.cpp:103] Top shape: 200 3 1 1 (600)
I1222 17:54:00.514685 2009993984 layer_factory.hpp:78] Creating layer loss_pose_
I1222 17:54:00.514693 2009993984 net.cpp:67] Creating Layer loss_pose_
I1222 17:54:00.514698 2009993984 net.cpp:394] loss_pose_ <- ip3
I1222 17:54:00.514722 2009993984 net.cpp:394] loss_pose_ <- pose
I1222 17:54:00.514737 2009993984 net.cpp:356] loss_pose_ -> loss_pose
I1222 17:54:00.514750 2009993984 net.cpp:96] Setting up loss_pose_
I1222 17:54:00.514758 2009993984 net.cpp:103] Top shape: 1 1 1 1 (1)
I1222 17:54:00.514765 2009993984 net.cpp:109]     with loss weight 1
I1222 17:54:00.514780 2009993984 layer_factory.hpp:78] Creating layer loss_pose_loss_pose__0_split
I1222 17:54:00.514788 2009993984 net.cpp:67] Creating Layer loss_pose_loss_pose__0_split
I1222 17:54:00.514794 2009993984 net.cpp:394] loss_pose_loss_pose__0_split <- loss_pose
I1222 17:54:00.514832 2009993984 net.cpp:356] loss_pose_loss_pose__0_split -> loss_pose_loss_pose__0_split_0
I1222 17:54:00.514844 2009993984 net.cpp:356] loss_pose_loss_pose__0_split -> loss_pose_loss_pose__0_split_1
I1222 17:54:00.514853 2009993984 net.cpp:96] Setting up loss_pose_loss_pose__0_split
I1222 17:54:00.514863 2009993984 net.cpp:103] Top shape: 1 1 1 1 (1)
I1222 17:54:00.514869 2009993984 net.cpp:109]     with loss weight 0.8
I1222 17:54:00.514875 2009993984 net.cpp:103] Top shape: 1 1 1 1 (1)
I1222 17:54:00.514878 2009993984 layer_factory.hpp:78] Creating layer loss_landmark_
I1222 17:54:00.514884 2009993984 net.cpp:67] Creating Layer loss_landmark_
I1222 17:54:00.514927 2009993984 net.cpp:394] loss_landmark_ <- ip2
I1222 17:54:00.514938 2009993984 net.cpp:394] loss_landmark_ <- landmark
I1222 17:54:00.514952 2009993984 net.cpp:356] loss_landmark_ -> loss_landmark
I1222 17:54:00.514961 2009993984 net.cpp:96] Setting up loss_landmark_
I1222 17:54:00.514971 2009993984 net.cpp:103] Top shape: 1 1 1 1 (1)
I1222 17:54:00.514977 2009993984 net.cpp:109]     with loss weight 1
I1222 17:54:00.514982 2009993984 layer_factory.hpp:78] Creating layer ES
I1222 17:54:00.514991 2009993984 net.cpp:67] Creating Layer ES
I1222 17:54:00.515010 2009993984 net.cpp:394] ES <- loss_pose_loss_pose__0_split_1
I1222 17:54:00.515018 2009993984 net.cpp:356] ES -> ESLayer
I1222 17:54:00.515025 2009993984 net.cpp:96] Setting up ES
I1222 17:54:00.515033 2009993984 net.cpp:103] Top shape: 1 1 1 1 (1)
I1222 17:54:00.515040 2009993984 net.cpp:172] ES does not need backward computation.
I1222 17:54:00.515045 2009993984 net.cpp:170] loss_landmark_ needs backward computation.
I1222 17:54:00.515051 2009993984 net.cpp:170] loss_pose_loss_pose__0_split needs backward computation.
I1222 17:54:00.515056 2009993984 net.cpp:170] loss_pose_ needs backward computation.
I1222 17:54:00.515061 2009993984 net.cpp:170] ip3 needs backward computation.
…
